Model/trained_model.pth (torch, 685384 bytes, 7 tensors)

weight f4 [512, 10]
00000000: 6999 c0be 8fd5 833f 62fd c4bd d6eb 013d
00000010: 8096 14bd 6e27 a03e 52d1 0b3e f57e 193e
00000020: 895c 2bbe 6aad b7bf e31f 45ba 4664 9fbc
00000030: 7423 d03b fda8 35bd 781b 8bba 011b a8bd
00000040: c2d1 a43a 3ee3 8bbd f948 4cbd 3a06 01bd
00000050: eb5a 64bf d754 f4bf 95f5 b6be b666 45be
00000060: 166a 453d a395 10bf 924a 3b3f 3ced 453e
00000070: 682e 31bf 9eee 47bf 214d 53bd c8e7 863f
00000080: b25b a839 dcb0 59bb a395 90ba ef17 c63c
00000090: a5f0 c5ba 037f 893d 51d8 4fbe 4340 03c0
000000a0: 1de8 773e 7a3b 4e3e 3124 23be 3a7f 1abe
000000b0: 805c 413e e668 86be 05ac 1bbf c1b4 523e
000000c0: 5b44 c43d aa68 83bf 070a 0cb9 86ea 70bf
000000d0: 0d5e 08be 1ede 293e 5030 e6bd 38f7 9cbe
000000e0: 3393 2abf dab5 3cbe 2f44 a8bc 0555 383f
000000f0: 6a7a 06bd 4829 f73e a852 7fbe ddb6 9bbd
00000100: 4edd 22be 36bf 4cbf 0abc 803e 349c 1d3e
00000110: 2d3f 04bd 52d8 fbbf 0af5 35bf f1ec f3bf
00000120: 901d 263d 846c 02bf 219d b1bd 98ae 453e
00000130: faac ed3d 8fed 9d3e d6ac 36bf 8572 aabf
00000140: 802e 89bc f283 f2bf 6687 90ba 8e8c aabc
00000150: 9209 a9bd c6cb 88bf e32c 76be 8ff0 a5bd
00000160: 8b4d 5f3d 793c 683d 76ea 0cbe 2748 a2bd
00000170: cd47 86bd d362 283e 6ac7 193e ee07 7ebe
00000180: 1906 28be 39b9 d7bd b320 0bbe e83f 8fbe
00000190: 8588 e63e ec2d 06c0 00b0 b2be 7734 f23d
000001a0: 92d5 58bf 4a45 263e 6e36 3abf a055 5f3d
000001b0: c41a bb3e 8f03 cc3f 9288 b03e 3139 f8be
000001c0: aa44 f03e 0aa4 f7be e16f 513e 3e6e 50be
000001d0: 7c84 f6be 3365 3b3e 40de ee3e 44d1 16bf
000001e0: 2ea2 1f3d da31 8d3f dcc2 f83a 5f6d 9d3e
000001f0: 392a 9cbe 45cb 9cbd 1847 48bd 2e91 eb3c
00000200: 9d1a d63d bb49 31c0 ff2b 62be 7551 0a3e
00000210: 0756 6cbd 6be2 b43c a323 2fbd 5297 c1bd
00000220: fca2 00bd db07 bcbc 2e81 b6be f5f0 67bd
00000230: ddcb 0abe 412c 2c3e 8714 c2bd a736 f1bd
00000240: dd39 0ebd 0c8e 03be ba4e 10be 7e68 48bc
00000250: 15bf b7bd b6a0 81bd a787 84bc 03cd 8abd
00000260: b895 a5bd 11e5 983d 2adb aebd 00a3 eb3c
00000270: b087 b1bb 82f6 5dba 12f5 88bd e1f4 93bd
00000280: 9dc2 1bbd 3165 73c0 61b6 823a 5928 0dbb
00000290: 0c76 593c 76d2 323c 7276 4abc a521 2dbd
000002a0: 8597 fa3d 3a29 5d40 c8e4 3f3e 4320 f0bf
000002b0: 8841 0fbe a926 01bf 770f b9bd 5cb4 c8be
000002c0: 8abd 193e 7072 d63e 59b9 623e 4162 a3bf
000002d0: b54b 19be d51a 6e3d aad1 5e3a 760f 64bd
000002e0: 61bc ab3d cb59 7fbc b19c 0f3c d508 53bd
000002f0: 328e f6bd a62b e8bd 50d9 c63e 04bf 283f
00000300: 506c f83d 899c cbbd 428a 643d cedc 6ebf
00000310: 46fe 16bf 0cd0 1f3e 8a50 5e3e 4b14 f4bf
00000320: 22d3 80bd 0c8a ab3d 5da8 9d3d 6d4f 3d3d
00000330: eafc 173e 1381 02bd 7e0a 33be 5c30 01bc
00000340: 53de b6bb 5907 3bbe 248d 8bbe 5622 ccbc
00000350: 0d47 92be 7477 06be 45ca 6bbe 3b2a 4a3d
00000360: 1d59 303e 32c7 2c3c 7d18 efbd 196e 47bf
00000370: b898 893e 1401 a7bf d1c4 a53d e1f1 9ebd
00000380: acfb 673d d109 b4be 698f e3be f943 183c
00000390: cfac f63d 2f26 c53e 6c65 983d c49a 51c0
000003a0: 7b7e 4e3b 0861 6abb 265e be3a 65e9 a8bc
000003b0: b9ad 073c 6b6f 81bd 2c1f ec3d c131 5740
000003c0: c801 8abc 0f0f d03d 4c42 83bd 3531 443d
000003d0: fa80 6abd b816 81be a46b 5f3d 3a4b b2be
000003e0: 5f63 f9bd 585b 2e3c 2c6b 903e 4749 cfbe
000003f0: 694a 96bd 223f 543e da2f 36be 1938 10bf
-0.37617043 1.0299548 -0.096186414 0.03171905 -0.03627634 0.31280082 0.13654068 0.14989837
-0.16734518 -1.4349797 -0.0007519705 -0.019456994 0.0063518826 -0.044350613 -0.0010613045 -0.082082756
0.001257472 -0.068304524 -0.04987428 -0.03150008 -0.8920123 -1.9088391 -0.3573424 -0.19277462
0.048196875 -0.5647833 0.7316066 0.19328779 -0.69211435 -0.78098476 -0.051587228 1.0539484
0.00032111775 -0.0033216989 -0.0011030923 0.024181334 -0.0015101625 0.06713679 -0.20297362 -2.0507972
0.24209638 0.20139876 -0.15931775 -0.15087596 0.18882942 -0.26251906 -0.60809356 0.20576765
0.0958335 -1.0266316 -0.00013355176 -0.94107854 -0.13317128 0.16588637 -0.11239684 -0.30657363
-0.6663086 -0.18428746 -0.020540325 0.7200473 -0.032831587 0.48273683 -0.24933875 -0.07603238
-0.15904734 -0.79979265 0.25143462 0.15391618 -0.03228681 -1.9675391 -0.71077025 -1.9056684
0.040555537 -0.5094683 -0.08672548 0.19304883 0.11605258 0.30845305 -0.71357477 -1.3316199
-0.016745806 -1.8946517 -0.001102668 -0.020818975 -0.082537785 -1.0687187 -0.2404056 -0.081025235
0.05451731 0.056698296 -0.13761315 -0.07923918 -0.06556664 0.16443948 0.15017477 -0.24807712
-0.16408576 -0.10533375 -0.13586693 -0.27978444 0.4502603 -2.0965528 -0.34899902 0.11826413
-0.8470088 0.16237369 -0.72739303 0.054525018 0.36543858 1.5938586 0.34479195 -0.48481134
0.46927387 -0.4836734 0.20452835 -0.20354554 -0.48147953 0.18300323 0.46653938 -0.58913064
0.038973026 1.1030838 0.0018978971 0.30747506 -0.30500963 -0.07655958 -0.048895925 0.02875575
0.10454295 -2.7701252 -0.22087096 0.13507636 -0.05769923 0.02208062 -0.042758595 -0.0945269
-0.031405434 -0.022952965 -0.3564543 -0.05662628 -0.1355433 0.16813757 -0.094765715 -0.11778002
-0.03472315 -0.12847155 -0.14092532 -0.012231944 -0.08971993 -0.06329481 -0.016177965 -0.06777384
-0.08085197 0.07465566 -0.08537896 0.028764248 -0.0054177865 -0.00084672135 -0.066873685 -0.07224441
-0.038027395 -3.8030512 0.0009972566 -0.0021538942 0.0132727735 0.010914436 -0.012357341 -0.042268414
0.12235931 3.4556413 0.18739617 -1.8759845 -0.13989842 -0.50449616 -0.09036153 -0.39200103
0.1501371 0.41884184 0.22141017 -1.276436 -0.14970286 0.058131058 0.00084998703 -0.055678807
0.0838554 -0.015585373 0.0087653855 -0.051522095 -0.1203884 -0.1133645 0.3883767 0.65916467
0.12130034 -0.09941966 0.055795915 -0.9330567 -0.5898174 0.15606707 0.2171041 -1.9068693
-0.062902704 0.0837594 0.07698128 0.046218324 0.14842573 -0.031861376 -0.17484471 -0.007885065
-0.0055807023 -0.18264522 -0.2725612 -0.024918716 -0.28569832 -0.13131505 -0.23026378 0.04935668
0.17221494 0.010545539 -0.11674593 -0.7790237 0.26874328 -1.3047204 0.080941804 -0.077609785
0.056636497 -0.3516374 -0.4444535 0.00929355 0.120446794 0.38505694 0.0744122 -3.2750711
0.0031508494 -0.0035763402 0.0014523908 -0.020619104 0.008281165 -0.063200794 0.11529383 3.3624117
-0.016846552 0.10159122 -0.064091295 0.04789849 -0.057251908 -0.25212646 0.054546013 -0.34823018
-0.12177157 0.010641895 0.28206766 -0.40485594 -0.07338411 0.20727208 -0.17791691 -0.563356

bias f4 [512]
00000000: a21e 16c0 253d 61be 2477 48c0 968a 88bf
00000010: ff3b 35c0 c787 05c0 3b31 f8bf e30b 43c0
00000020: b524 3cc0 98b4 8bbf 7c6f 3ac0 da3a 58c0
00000030: 046b 13c0 5a0a d8be 49f7 79bf d1a6 0abf
00000040: d1fc 003f 8534 40c0 fcee a7be a3ce 26c0
00000050: 7059 01bf 56c3 0cc0 37f7 35c0 58b9 4a3f
00000060: 963b 6fbf f64a 31c0 0cee 3dc0 bc75 24bf
00000070: 1c2a 32bf 3279 c2be e694 c0bf 0c29 75be
00000080: 8957 61bf 0973 92bf 8d58 b43d 1a80 26bf
00000090: 34e7 34c0 cad0 24c0 8b58 34c0 e4b2 52c0
000000a0: 74bc 05c0 585b 1bc0 5777 34bf 6897 a3bf
000000b0: 8e3a 3abf ce07 e9bf 950f fabf 9abe a7be
000000c0: be67 31c0 ab19 f4be d842 bebf 053b babe
000000d0: aeb9 dbbf 3c94 01c0 0345 edbe 3dfe 27c0
000000e0: 36d5 83c0 a233 09c0 bfb8 5fbe 8b6e 83bf
000000f0: c92b 09bf aa7a 5cbe 672d 06bf e1cd 53c0
00000100: 61d0 37bf 1d3e 5dc0 43ce acbe c98b 83c0
00000110: 88ab 9bbf eeb6 39c0 b9e6 39bf 872e b3bf
00000120: 9a51 1cc0 cdfe 14bf 8573 b7bf 3097 28c0
00000130: 9a81 47be 9cb0 82be 622b 13bf 1774 5fbf
00000140: f05d 0dbf a0fa 53c0 ad0d 0fc0 7f0b 03c0
00000150: 6f41 90bf 94b1 13c0 8d82 e2bf fa58 93be
00000160: 8048 d5bf ae80 23c0 908c bdbf 89fb 4bbe
00000170: 8f45 65c0 f2e5 5ac0 4e7a b0bf 697e e6bf
00000180: 0906 03c0 bef1 ccbf 7af1 f8be 2222 c6bf
00000190: 483e 92bf 3b75 54c0 d84b 25c0 1c30 23c0
000001a0: 9788 57c0 f656 a9be de8c fdbe 3ba3 29c0
000001b0: 417b 20c0 79fc 5d3e ef24 e3bf 3690 debe
000001c0: 0427 84c0 fb75 d3be 43a8 06c0 0ab9 6ec0
000001d0: e6f5 23c0 a5ed c5bf ef82 7cbf 5270 bebf
000001e0: 4b90 a7bf 6a30 2fc0 48b6 72bf 6a55 88bf
000001f0: 2e97 bfbf 8721 abbe 9dc3 a0be 6bec 07c0
00000200: f6f5 c8bf b3fd 08bf b884 85bf a618 55bf
00000210: 9460 87be c111 b3be b59e 08be e638 14c0
00000220: 0f3d d7bf 4aa7 533f ea76 fbbf b3ba 25c0
00000230: fa32 2cc0 915c 5bc0 0b84 a8bf 58e9 b8bf
00000240: e1a1 3ac0 d54d 5dbf 8e80 94bf 859d 56be
00000250: facf 8cbf 43be 77c0 aad1 1cc0 6f07 b3bf
00000260: 5106 3cc0 05c8 19c0 b69c ccbe 99ea 27c0
00000270: 62c5 0bbf c770 25bf aa0d 75c0 ce0c d5be
00000280: ba06 fdbf bf79 03c0 7b2d b3bf decd 0ac0
00000290: 287f 94be 6400 bfbf ae62 2fc0 e87d 12be
000002a0: b086 38bf 1162 90bf 7593 0fbf 0111 93bf
000002b0: 7202 90be 9bb6 4cbe 750f 9fbe 0179 c2bf
000002c0: 727b d2bf 5c14 7abf e724 a4be 5e14 53be
000002d0: b13c a4be fbfb 0dc0 5911 11c0 e927 47c0
000002e0: 9274 62c0 56b9 93bf d4d8 00c0 ceef f4bd
000002f0: 0b6d 8ebf 8187 2fc0 dd0c 28c0 6022 20c0
00000300: a0eb 15c0 62a1 18c0 8daa bfbf 1504 00c0
00000310: c2cb 27c0 1a82 0fc0 8a7e 26c0 9bce a4bf
00000320: 9212 d9bf 939e edbe 40ac 92bf 8f55 febf
00000330: 3cb7 1dc0 6287 0ec0 dfed ddbe 250a 17c0
00000340: 5f5a e5bf aecd b7bf 8b97 14be 45b5 4ebe
00000350: efdf 34c0 c575 b1bf f20e e7bf bb9f 05c0
00000360: feea 42c0 b459 71bf 77b5 54c0 6f1d 38c0
00000370: a9dd 8cbe 9776 efbf 9d5c 2cc0 5e55 3ebf
00000380: a8b9 82bf b320 05c0 1c9a bbbf 4e01 8fbf
00000390: a179 623e 5dd5 2fc0 f0df d4bf 4d73 b4be
000003a0: c3e3 a9be 0b97 4ac0 5806 75bf c49c 20c0
000003b0: 0dfe 23c0 913b b3bd 2e41 f9bf e881 1cc0
000003c0: 3b3a 8cbe 4ec1 21bf 14d3 cfbf e4c7 c2be
000003d0: ab92 a8be e01a 14c0 3fe9 d0bf dd54 65c0
000003e0: 269d 0fc0 afe1 1dc0 4ac5 20c0 8b77 e7bf
000003f0: e714 d7be 1f0b b1be fcd6 5a3e 6cf2 6abf
-2.3456197 -0.21995981 -3.1322718 -1.0667293 -2.8317869 -2.0864122 -1.9390024 -3.0476005
-2.9397404 -1.0914488 -2.9130545 -3.378592 -2.3034067 -0.42195398 -0.9764295 -0.5416079
0.5038577 -3.0032055 -0.32799518 -2.606362 -0.50527096 -2.1994224 -2.8432138 0.7918906
-0.93450296 -2.7702003 -2.9676542 -0.6424215 -0.69595504 -0.3798309 -1.504544 -0.2394144
-0.88024193 -1.1441356 0.08805952 -0.6503922 -2.8266115 -2.5752435 -2.8179042 -3.2921686
-2.0896273 -2.4274502 -0.704946 -1.278058 -0.727456 -1.8205507 -1.9536005 -0.32762605
-2.771957 -0.47675833 -1.4864149 -0.36373153 -1.716604 -2.0246725 -0.46341714 -2.6248925
-4.1197767 -2.1437764 -0.21847819 -1.026811 -0.53582436 -0.21531168 -0.5241303 -3.3094409
-0.71802336 -3.456916 -0.33751115 -4.1108136 -1.2161722 -2.9017901 -0.7261768 -1.3998574
-2.4424806 -0.58201295 -1.4332129 -2.6342278 -0.19483033 -0.25525367 -0.5748807 -0.87286514
-0.5522146 -3.312172 -2.2352097 -2.0475767 -1.1269969 -2.3077135 -1.7696091 -0.2877882
-1.666275 -2.554729 -1.4808521 -0.19920172 -3.5823705 -3.4202847 -1.3787324 -1.8007327
-2.0472434 -1.6011274 -0.48621732 -1.5479167 -1.1425257 -3.3196552 -2.5827541 -2.5498114
-3.3677118 -0.33074158 -0.49521536 -2.6505878 -2.5075228 0.21678342 -1.7745646 -0.434694
-4.1297626 -0.4130095 -2.1040199 -3.730044 -2.5618834 -1.5463148 -0.9863729 -1.4878027
-1.309091 -2.73733 -0.9480939 -1.0651066 -1.4968011 -0.33424017 -0.3139924 -2.1238048
-1.5700061 -0.53512114 -1.0431128 -0.83240736 -0.2644087 -0.34974483 -0.13341792 -2.3159728
-1.6815509 0.8267714 -1.9645665 -2.5895202 -2.6906114 -3.4275248 -1.3165296 -1.4446211
-2.9161303 -0.8644689 -1.1601732 -0.20958526 -1.100097 -3.8709877 -2.4502969 -1.3986644
-2.9378855 -2.4028332 -0.3996331 -2.6236937 -0.5459806 -0.6462521 -3.828959 -0.41611332
-1.9767678 -2.0543058 -1.3998255 -2.1688151 -0.29003263 -1.4921994 -2.740398 -0.14305842
-0.72080517 -1.1279927 -0.56084377 -1.1489564 -0.28126866 -0.19991533 -0.3106648 -1.5193177
-1.6443923 -0.97687316 -0.32059404 -0.20613238 -0.32077554 -2.2185047 -2.2666838 -3.111811
-3.538365 -1.1540935 -2.0132341 -0.119598016 -1.1127027 -2.7426455 -2.625785 -2.502098
-2.3425064 -2.38485 -1.4973923 -2.0002491 -2.6218114 -2.2423158 -2.6014733 -1.2875551
-1.6958792 -0.46410045 -1.1458817 -1.986986 -2.4643087 -2.227013 -0.43345544 -2.3599942
-1.7918204 -1.4359643 -0.14510934 -0.20186336 -2.8261678 -1.3864065 -1.8051436 -2.0878742
-3.0455928 -0.942775 -3.3235757 -2.8767965 -0.27512863 -1.8708066 -2.6931527 -0.7434901
-1.0212908 -2.0801208 -1.4656405 -1.1172273 0.2211671 -2.7473977 -1.663084 -0.35244218
-0.3318158 -3.165469 -0.95712805 -2.5095682 -2.562381 -0.08751596 -1.9473016 -2.4454288
-0.27388176 -0.63185585 -1.6236291 -0.3804313 -0.329244 -2.3141403 -1.6321181 -3.5833046
-2.2439666 -2.4668996 -2.5120416 -1.8083357 -0.42008135 -0.34578797 0.21371073 -0.91776156

weight f4 [256, 512]
00000000: 9648 f23b e1ff 7c3c fd02 da3c 742a 80be
00000010: 5d8a 14be 1f14 bf3b 2c8d 9c38 68bf 46be
00000020: bcdb 4bbd 0b1b 6dbd 84f4 8abc 1d58 febd
00000030: a7c1 17be e730 90bd 86cd a0bd 7434 ebbd
00000040: 6c84 803c c992 b2bd 950b 9abd 932e 0fbd
00000050: c610 823d c313 3e3d 557a 2c3e 3047 3cbe
00000060: 9c96 3dbd d83e c5be 657f 79bd 4af3 93bc
00000070: c795 ac3d 58de 933b 3615 8cbe 985d 163e
00000080: c2df 71bd 8039 49be c88f 9dbe fd27 90bd
00000090: 42ff 623d 1b41 ef3d 9ab7 37be 9411 afbd
000000a0: 8111 aa3c 3905 0b3c 2dd0 0dbe 217e 033c
000000b0: 6c9e 863c 72e1 b9bd fdf2 9abe 6f6c 03bd
000000c0: 0c0e cd3c 668b c4bc a3b3 e8bc bb8c c7bd
000000d0: cd82 e1bd a293 dbbb 9a5f fd3b a541 8abc
000000e0: 5e8f 0bbe 5d59 343c 0e23 bdbd a5c9 16bd
000000f0: d455 9cbd f287 eb3d c058 a73c 1a3d 1abc
00000100: 7a20 363d ba59 9abd 03a0 8fbd 69a8 6dbe
00000110: 5cff 8a3d e2c6 10bd 09ca a83d 7a04 a73d
00000120: 10ef 78be e26c 93be 39cd 4cbe fc3e 383d
00000130: 3fd2 20bd 965a 333d 8a22 783c 0fbb 7dbc
00000140: e85c 4ebe 897e 253c 2c80 a63d 90f1 b93c
00000150: fc4f 6abe 51a1 9fbe d83e 0a3e 72d2 043e
00000160: 2339 a93d 4318 89bd 6b95 bcbd 6a4a 93be
00000170: 81ef cf3c 9436 babd 3067 06be 2275 5fbd
00000180: fb8f 09bd 7dab 62bc d9f3 10be 0f6f f33d
00000190: 2920 87be 6929 b13c 35d8 5bbd 1dd2 dcbb
000001a0: c4ea 9e3d bca1 a43c 3b8c 0f3c 8a8b 1dbe
000001b0: a3d5 13be 1669 16be 9167 38bc d380 fa3d
000001c0: 5805 363d cca5 7abc 99a9 8cbe 2fab ccbc
000001d0: 34ee e63c 55d8 95bd 8ce4 b73c 2570 05be
000001e0: 5f96 eebd 64a9 44be 5c76 8bbb 2c4d e13b
000001f0: 7cd5 7cbd 68f5 953d 0dcd aabd 666a 753d
00000200: 2f1a 90bd 0d8b 65be 99d5 f7bd 1dc3 823d
00000210: 0a12 acbd 0d1f e23d 79e7 213c 8ea9 75be
00000220: bf3f 9a38 2580 81bc ddda 33be ff83 c03c
00000230: 1934 38be e04a 003e e37b 16be a465 9bbe
00000240: 539a b3bd 11e6 b3bc 515b a3bd a27d 92bd
00000250: 77f2 b0bd f1ab 90bc b0cf 16be 37dd 7dbd
00000260: bc18 63be 7201 e2be 03b6 8fbd 5943 a6bd
00000270: af2e b3bd f0a9 db3c ddf4 cdbe f0be f4bb
00000280: 5bbf c3bd 1221 07be acd0 fabd 2e6e 20bd
00000290: 62ce 4bbd e4fa abbd a1c4 83be af51 03bd
000002a0: b9f0 13bd d6c7 85bd 136f bc3c bca5 0e3c
000002b0: cd6e 11be 2a22 f3bc baf6 f7bd 63e5 66be
000002c0: 13af e03c 63f3 acbd 2f25 8c3a cd9f cdbc
000002d0: 266d 59bb dc9f 983c 8175 2a3b d12d 48be
000002e0: 97a7 0c3e 0f82 b6bd b4c9 bf3c e4df babd
000002f0: 6aa9 afbd 8f2a 03be 317c 3dbe 6e1e 49be
00000300: 2df0 9bbd 4dad b9bd 3e76 cdbd fbd1 b43c
00000310: 8f8c 6fbe 7e37 38bd 9686 ecbc 8724 66bd
00000320: d86a 14be d899 39bd acf3 b7be c43e 71bd
00000330: 2a35 92bc d2bb 62be b171 38bd b829 c73b
00000340: fcb5 02bc f3c7 033e db98 19be 879a 7a3b
00000350: 0e25 7dbd 5548 afbd 9b8a b438 4448 3fbe
00000360: 3e02 09be 8f04 a33d 8f2f 72be b07e 55be
00000370: f713 a63d b8ff 09be 4dd4 363b 4ca2 88bd
00000380: b340 89bd 8705 eabd 5245 ceb9 2959 f73d
00000390: 15cb 0cbe 22f0 40be 4956 94be d42a eb3c
000003a0: cf41 48bd f17e 54be 3f6d d5bd 7f02 60be
000003b0: 858e a8be 2bd0 7ebd 4fde 42bd 1e78 3b3b
000003c0: 683b 95bc 6bbf fbbd 8233 b6be 7a02 0f3d
000003d0: e1cf 3f3c 6e66 3cbe 1e73 7fbe 4566 9a3d
000003e0: d250 bcbd 948b 81be f141 8dbe b481 9ebe
000003f0: 31b8 e9ba 97de f9bd 95d1 92bd bce7 45bb
0.007393907 0.015441866 0.026612753 -0.2503239 -0.14505906 0.005831256 7.464955e-05 -0.19408953
-0.049770102 -0.05788712 -0.016962297 -0.1241915 -0.14819966 -0.070405774 -0.078517005 -0.11484614
0.015688144 -0.08719403 -0.0752174 -0.034956526 0.063508555 0.046405565 0.16843541 -0.18386531
-0.04628621 -0.38524508 -0.06091251 -0.018060345 0.08427005 0.0045125894 -0.27359933 0.1468414
-0.059051283 -0.19650841 -0.3077376 -0.07038877 0.055419214 0.1168234 -0.17941132 -0.08548275
0.0207603 0.008485132 -0.13848944 0.008025677 0.016432963 -0.090762034 -0.3026351 -0.032085832
0.025031112 -0.023992252 -0.02840597 -0.09743639 -0.110112764 -0.006700949 0.007732344 -0.016877005
-0.13628909 0.011007634 -0.09235202 -0.036813397 -0.07633558 0.11500539 0.020428061 -0.009413982
0.044464566 -0.07536645 -0.07012942 -0.23208775 0.06786987 -0.03534592 0.0824166 0.08155151
-0.24309945 -0.28794008 -0.20000161 0.04498194 -0.039263006 0.04378756 0.0151449535 -0.015486493
-0.20152628 0.010100969 0.081299156 0.022698194 -0.22882074 -0.31177762 0.13500535 0.12970904
0.08262851 -0.06694081 -0.09208187 -0.2876771 0.025382759 -0.09092441 -0.131253 -0.054555066
-0.033584576 -0.013834831 -0.1415552 0.11886417 -0.26391724 0.021626191 -0.053672988 -0.0067389146
0.07759622 0.020096652 0.008761461 -0.15385261 -0.14436965 -0.14688525 -0.011255161 0.122316025
0.04443869 -0.015298318 -0.27473143 -0.02498397 0.028189756 -0.07316653 0.022447847 -0.13031061
-0.11649775 -0.19205242 -0.004256053 0.0068756547 -0.061727032 0.07322198 -0.083398916 0.059915923
-0.07036244 -0.22416325 -0.121012874 0.06384871 -0.08401878 0.11041079 0.009881848 -0.23990461
7.355166e-05 -0.015808174 -0.17563958 0.02350044 -0.17988624 0.12528563 -0.14695697 -0.30350983
-0.087696694 -0.02196029 -0.079764016 -0.07152869 -0.086399965 -0.017660113 -0.14727664 -0.061978545
-0.22177404 -0.44141728 -0.07017138 -0.08118314 -0.087491386 0.026814431 -0.40225878 -0.0074690506
-0.095579825 -0.13196209 -0.12246832 -0.039167576 -0.04975737 -0.08397463 -0.25735953 -0.03206032
-0.036118243 -0.06532256 0.023002183 0.008706506 -0.14202423 -0.029679377 -0.12107606 -0.22548442
0.027427232 -0.0844486 0.0010692234 -0.025100613 -0.003317663 0.018630914 0.002600998 -0.19548728
0.13735805 -0.089115255 0.02341161 -0.09124735 -0.08577235 -0.12809204 -0.18504407 -0.19640514
-0.07614169 -0.090662576 -0.100323185 0.022072783 -0.23393463 -0.044974796 -0.02887277 -0.05618718
-0.14493883 -0.045312732 -0.35928094 -0.05889775 -0.017847616 -0.2214196 -0.0450303 0.0060779713
-0.007977959 0.12869243 -0.14999716 0.0038239078 -0.061802916 -0.08558718 8.608886e-05 -0.18679911
-0.13379762 0.07959854 -0.23650955 -0.20849109 0.08109277 -0.13476455 0.0027897537 -0.06671581
-0.067017935 -0.114268355 -0.0003934303 0.12077553 -0.13749345 -0.18841603 -0.2897208 0.028706945
-0.048890885 -0.2075155 -0.10421228 -0.21875952 -0.32921234 -0.062210243 -0.04757529 0.002860553
-0.018216804 -0.122923695 -0.35586172 0.03491447 0.011707277 -0.18398449 -0.24946257 0.075390376
-0.09195103 -0.25301802 -0.27589372 -0.3095833 -0.0017831383 -0.12200659 -0.07168881 -0.003019794

bias f4 [256]
00000000: 0c06 79be 0282 a23f 4c98 66be 73b4 333e
00000010: e6c3 3cbe 3b9d 68bf 3379 5cbe 2817 11be
00000020: 429d 03bf 634e 92be fad6 9dbe 555a e1bd
00000030: 5526 08be 4d5a 96be 078c 45be 018e 58be
00000040: 4597 64be 0f5b 0cbf 192d eabd ea76 dabd
00000050: b8a3 c9bd 0b9f 193f 046f 2c3e 5932 093c
00000060: 7107 6ebe 6d7e 4dbe 5a76 f9be 74a7 b7bd
00000070: ee63 743f 4df0 3bbe 6189 47be d96b f1bd
00000080: bb1f a4bd eaf7 5a3e 5336 babe 8b2f 92bd
00000090: cbb6 06bf 8127 c6bd 7bce 6fbe c299 aebd
000000a0: c17d 47be 7d30 a9bd 9f7d 76be 43d1 2e3e
000000b0: 6296 69be 4248 d33c d687 4cbe 2cb3 07bf
000000c0: a36d 61be f633 45be 5c70 0bbe 9cc3 83be
000000d0: 0bfa 67bd 403f 8bbd 93ad 10bf 2515 b0bd
000000e0: 5d46 35be 0f26 25be 5a62 a1be 8346 97be
000000f0: 970d abbe d133 d8be e3fd 69be 74f0 a9be
00000100: 063b 14bc b7ed bebe c8e2 76be af8b 72be
00000110: 072f eebe 53c6 c5be a4de b3be ff61 5fbe
00000120: 1675 15bf 3f09 82bd 7449 233d 933a 8fbe
00000130: 4272 dbbe b47b 19be 9f1e 80bd 088c a4be
00000140: 11b0 edbe 91ee 5fbf 74c6 9c3a fcf5 d8bd
00000150: f60a 33be 665d b2be 8588 e2bc b307 a4bd
00000160: a8ea d8bd 67d7 dbbe 74aa 4fbe e8aa 12bf
00000170: 23ba 85be ebd4 a7bd 1e8a 14bf 6240 4fbe
00000180: eafa 6dbe 6b00 89be cf41 0dc0 ebc9 32be
00000190: ef0f 2dbe bf86 b6bd b20b 85bd 259a 9dbe
000001a0: 675f 23be d2fb 41be 1734 15be 1229 aabd
000001b0: d44f fbbe da99 463f 2bf4 8abe 57a5 423e
000001c0: 5b02 26bd 225c a63d 202e 8abd 17e4 89be
000001d0: 3dd5 37bf 9303 54be f075 1d3d c26c 63be
000001e0: b681 b3be c087 59be f3cf 5ebe b8d6 e7be
000001f0: b306 21be c617 1cbf 32dd e4be 8f45 67be
00000200: be79 ce3e 971b 1dbe 1111 3ebe baa6 afbe
00000210: 59ce a2bd 0681 c23c 07ae 6cbe b4f7 b9bd
00000220: 095f 7e3b 9c1c 54bf 72d2 6bbe 815e a6be
00000230: f555 b63f 0506 403f 98f6 91be bde7 28be
00000240: 5c33 e6be 35d4 413e 88fd 43be 4e26 f1be
00000250: f01a 163f 712e b43c f84a 2dbf e9bb 8ebe
00000260: 4899 973d 9b84 85bd 0d46 fabe 8dd1 56be
00000270: 1a2e b9be 64fa bebe 2a8b 233d 0625 a3be
00000280: 6592 0abf 281a 8abe 5ad2 70be 3f26 8c3f
00000290: b8c9 52bf 9f6e 043b 1de8 b3bd 762a 1e3c
000002a0: 7c10 a13e 2e34 4ebe 51d0 d8bd 9bf0 7bbe
000002b0: 980c 40bf 58d3 7abe 0d6f 56be 8c6a 7abe
000002c0: 9983 b2be 4daa 6abe 8142 cebe 5cdf 84be
000002d0: 3137 6cbc e46d aabe 5444 00bf b2c6 93bd
000002e0: bd08 5f3e 83fd d9bd fb24 99be c939 3a3f
000002f0: 2881 d4bd 82b3 11be ebdd 80bd 0ead c43d
00000300: 5220 b3be 5c5f 84be 81ed 32be 74de 8cbd
00000310: de54 26be 3cc9 c7be 7a5b 23be 5436 efbe
00000320: 5cff b2bd 6507 47be 57c0 c0be 1564 94bd
00000330: 6c42 bcbd be85 e9bd 0ee1 2cbd c99f e9be
00000340: 7e04 7ebd 809f 35be 9c1c 9cbe 9b4e 65be
00000350: 520c 52be a898 cfbd f01e b6be 90d2 18bf
00000360: 0f49 fbbe 8961 75be 781a 40be 261c 79be
00000370: ab75 38be 1697 68be 9d89 46be b083 bbbe
00000380: 8d1e 02be 3dbe 54bd a522 aebd 0f63 3abd
00000390: 8061 7ebd 0ab2 29bf 2e01 79be bbb6 d0bd
000003a0: c9cd 8bbe 3aba 243e 365e d9bf 0692 6abe
000003b0: 5998 b5be 5ea5 25be dbb1 b9bd 53f2 6ebe
000003c0: b23a 74be 37ea e2be 26ab a6bd 1e5b 283d
000003d0: c35b efbe 401b 84be 1d83 c9bd 1840 c7be
000003e0: fcdf 69be 57a1 c3be 308f 253e 5015 04be
000003f0: 3f69 48be 586a 45be aea4 06bf 0e5c ecbd
-0.24318713 1.2695925 -0.22519034 0.17549305 -0.18434104 -0.90864915 -0.21530609 -0.1416899
-0.5141183 -0.2857543 -0.30828077 -0.110035576 -0.13295873 -0.2936577 -0.19291697 -0.2114792
-0.2232333 -0.54826444 -0.11434383 -0.10667212 -0.0984568 0.60008305 0.16839224 0.00837382
-0.23245026 -0.20067759 -0.48723108 -0.08967486 0.9546498 -0.18353386 -0.19486 -0.117881484
-0.080138646 0.21383634 -0.3636957 -0.07137974 -0.5262267 -0.096755035 -0.2341861 -0.08525421
-0.19481565 -0.082612015 -0.24071358 0.17072015 -0.22811273 0.025791291 -0.19973692 -0.5300777
-0.2201448 -0.19258103 -0.1361708 -0.25735176 -0.056634944 -0.06799173 -0.56514853 -0.08597783
-0.17702623 -0.161278 -0.3152035 -0.29545984 -0.33408806 -0.42227033 -0.22850756 -0.33191264
-0.009047275 -0.37290737 -0.24109948 -0.23686098 -0.46520254 -0.38627872 -0.351308 -0.21814726
-0.58381784 -0.0634942 0.039864972 -0.27974376 -0.4286061 -0.14988595 -0.062558405 -0.32138085
-0.4642339 -0.874734 0.0011960999 -0.10593793 -0.1748465 -0.34836882 -0.027652988 -0.08009281
-0.10591632 -0.42937776 -0.20279866 -0.5729203 -0.26118574 -0.08194908 -0.5802325 -0.20239404
-0.23240247 -0.2675813 -2.2071416 -0.17459838 -0.1690061 -0.089124195 -0.06496371 -0.30781665
-0.15954362 -0.18943718 -0.14570652 -0.08308615 -0.49084342 0.7757851 -0.2713941 0.19008385
-0.04052959 0.08123042 -0.06747079 -0.2693183 -0.7180975 -0.20704488 0.038442552 -0.22209457
-0.350599 -0.21243191 -0.21759014 -0.45281005 -0.15725212 -0.60973775 -0.4470001 -0.22585128
0.40327257 -0.15342556 -0.18561198 -0.3430689 -0.07949514 0.023743164 -0.23113261 -0.09080449
0.003881397 -0.82856154 -0.23029497 -0.32493976 1.4244982 0.75009185 -0.2850845 -0.16494651
-0.4496106 0.18928607 -0.19139683 -0.47099537 0.58634853 0.021994801 -0.6769252 -0.2787774
0.07402283 -0.06519433 -0.4888157 -0.20978375 -0.36167985 -0.37300408 0.03992764 -0.31864184
-0.5412963 -0.2697308 -0.23517743 1.0949172 -0.8233905 0.0020207537 -0.087845065 0.009653678
0.3145789 -0.20137092 -0.10586608 -0.24603502 -0.75019217 -0.24494684 -0.209408 -0.24454707
-0.34866026 -0.22916527 -0.40285113 -0.2595166 -0.0144174555 -0.33286965 -0.5010426 -0.072156325
0.21780677 -0.10644057 -0.29911026 0.72744423 -0.10376197 -0.14228633 -0.062923275 0.0960332
-0.34985596 -0.25854003 -0.17473413 -0.06878367 -0.16243312 -0.39020717 -0.15952864 -0.46721137
-0.08740112 -0.19436415 -0.37646744 -0.07245652 -0.091923565 -0.114024624 -0.042206816 -0.4562972
-0.062016003 -0.17736626 -0.30490577 -0.22393267 -0.20512512 -0.10136539 -0.35570478 -0.5969629
-0.49079177 -0.23962988 -0.18760097 -0.24327144 -0.18013637 -0.22713885 -0.19388433 -0.36623907
-0.12706967 -0.051939238 -0.08502702 -0.045504626 -0.062104702 -0.6628729 -0.24316856 -0.10191103
-0.2730544 0.16086665 -1.6981876 -0.22907266 -0.35467795 -0.16176364 -0.09067126 -0.23334627
-0.23850515 -0.44319317 -0.08138113 0.04110252 -0.46749696 -0.2580204 -0.09839461 -0.38916087
-0.2283935 -0.3820903 0.16167903 -0.12898755 -0.19571398 -0.19278848 -0.5259503 -0.115409955

weight f4 [128, 256]
00000000: 7630 243d 4848 76be e3de 1ebe b8ab 36bf
00000010: 3b8c 613d f451 84be f411 153d 736c 03be
00000020: a0a0 d6bd 9ac7 863d e1fe 663e 3656 623d
00000030: d64e 93bc 7586 db3c 183d 2c3e 6f0e 093e
00000040: 98e5 3fbe 5338 7a3d 69fd 473e 4f62 953d
00000050: 7ab2 113e 7b7d 66bf d8cc 49bf 94f9 ce3d
00000060: a95b 2a3e 8f06 003e 84a7 8c3e 22de 28be
00000070: deb4 3dc0 eacd 7c3e 981b d5bd a327 f33d
00000080: 1d57 b4bb e7ba 81bd 3e9f a53c 16a9 223e
00000090: 3f82 eabe 6046 0c3e 6140 72bd ca09 c4be
000000a0: 0f7d 943d f9e0 dcbe 21a1 05be 3e0a 5fbf
000000b0: 96e1 02bd 44ad 4ebf fd3f 07be acce 343d
000000c0: 267a 133c 92be 96bd 6e71 193e 30e2 99bd
000000d0: 0c43 4dbd c953 dcbb 48a2 39be f2f8 313e
000000e0: 2885 203d 3f5f 7abd 5eb0 833d 1892 a53e
000000f0: a0e2 83bb 07eb b3bd a27c 11be 2792 b8be
00000100: a869 2cbe e3a8 3abd 5104 233e 01cc 0fbe
00000110: 2fbe d6bc fc86 c93d 3832 bcbd f5c9 77bd
00000120: 9db4 e4bf 01f2 d23d 8b79 e03d e0f1 eabb
00000130: 85a2 a13d ace2 5bbd 54c8 5cbd 3122 1ebe
00000140: daad 29be 7a8a 01be 569e 11bf fe73 80be
00000150: 724b 05bd da8c 16be 58cb c13d 6f36 143d
00000160: 6b1c 263d 0d07 69bd 10ea 3dbd b080 e6bd
00000170: 2859 9d3d 3347 753d 81f8 56be 902d b9bd
00000180: 7213 01be 2070 f23c 014d dabd 3f5b 25be
00000190: f9c8 b03d 18cb b53c bb8e bfbd b1c0 29bd
000001a0: feca 973d 44f7 dfbd ba12 c13d f2a1 eebc
000001b0: 9060 c0bc 5544 a9be a61c 213e fd7a 5abf
000001c0: bcf7 933c aa65 aebd 6b10 71bd 6496 6f3b
000001d0: fe49 61bf 141c b9bc 2cad c5bf 54b1 22bc
000001e0: 80e7 97be 3504 1bbe f539 f7bd 815b 22be
000001f0: ab26 813d 6e1c 46be 3a58 e43e 54ed 703d
00000200: b201 9abe 2a42 aab8 1ed0 0b3d 43d0 713c
00000210: f4cc 1abe 074a 19bf 5fc9 8abd acc4 ffbc
00000220: 492b 0dbf 299c aabe 029e 1abd 3922 ebbd
00000230: 2e30 c3bf 0341 87bf 00da 693c eed0 953d
00000240: 5da6 15be 267a 38bf 2e40 353e 8d3f b73c
00000250: 3680 24bf 8da4 b73d 5fe1 a23e 04ea e23b
00000260: 6e26 8cbf bd0a 8c3d 32a9 163e a0dd c13b
00000270: f5a8 8cbf 789b e5bd 6f29 9bbe 4b97 543e
00000280: 9adc 1d3e c6e2 093e c465 b3bd 6261 91bf
00000290: d658 c7bc 5e97 823d 859e dd3c 4bbc 2dbf
000002a0: 86ad 113e 5d39 e6bd 2278 eb3d 97a8 85bd
000002b0: 41c8 b5be 8559 fd3d 7e7c 35bb 190c 2e3e
000002c0: 2293 40bd 742f f5be 0ec1 e83b 73e7 4fbd
000002d0: 41dd a8be eb4d 8bbc 7edc 96be 6de8 093d
000002e0: c1ed 34bf 8e69 ecbd 97fd 0fbe d345 89c0
000002f0: 74a4 563d ee1f cc3d 19f2 a5bd 6078 7ebf
00000300: de8b fcbb daba 603c 82a5 06bd 4007 8dbd
00000310: 5e2c 2a3e 6af2 30bd 6378 b5bd ccee 83bd
00000320: 53bd 993d c0c8 ad3b 62d0 91be 2eec ae3d
00000330: b13c cb3d a8bb 0dbf 26f6 0fbe b8d6 82bd
00000340: 0f6a 2f3d 57ce bb3c 1625 94bd 32be efbd
00000350: 1628 abbd 2686 90ba 6cda 34bd af07 28be
00000360: 6c62 13be 587b 793c cccc bf3c 4ed2 f43d
00000370: 6edf 63be 2048 d0bd 3443 cfbd 43c8 9abc
00000380: dc0d 933d 75f0 273e 8706 163e 72e7 0dbd
00000390: 64a5 993d b805 01be 4c41 aabb 91b7 133e
000003a0: 9519 34bd f13a 27bf c1d4 b3be 5c67 cd3d
000003b0: 8a03 27be ecd4 ef3d 93ba c93d 3aa8 113e
000003c0: 6749 593d 5c42 76be 1989 c53d e9bb 7cbf
000003d0: 6bcb 95bd 7c83 aabd 7685 9b3d dc4d ac3e
000003e0: 6c51 ebbd e648 3a3e 3573 bcbd caa1 31bd
000003f0: 3eff 103d 7dcc d5bc e764 c7be 408a a9bd
0.04008528 -0.2405101 -0.15514712 -0.7135577 0.055065375 -0.25843775 0.036394075 -0.12834339
-0.104798555 0.0658104 0.22558166 0.055258 -0.017981928 0.026797513 0.1682018 0.13384412
-0.18739927 0.06108887 0.19530262 0.072941415 0.1422824 -0.9003522 -0.7882819 0.10106197
0.16636528 0.12502502 0.27471554 -0.16490987 -2.9641643 0.24687925 -0.10405654 0.118727945
-0.005503549 -0.06334477 0.020217534 0.15884814 -0.45802495 0.13698721 -0.059143428 -0.38288718
0.072504155 -0.4314039 -0.13049747 -0.87125003 -0.031953417 -0.8073313 -0.13208003 0.04414241
0.00900129 -0.07360567 0.14984676 -0.07513845 -0.05011277 -0.006723855 -0.18128312 0.17380121
0.039189488 -0.06112599 0.06430124 0.32338023 -0.0040248185 -0.08785062 -0.142077 -0.36049005
-0.1683718 -0.04557122 0.15919615 -0.14042665 -0.026213733 0.09840199 -0.09189266 -0.060495336
-1.7867619 0.10300065 0.109606825 -0.007169947 0.07892326 -0.053682968 -0.053901985 -0.1544273
-0.16570225 -0.12650481 -0.56882226 -0.25088495 -0.032542653 -0.14702168 0.09462613 0.036184724
0.040554445 -0.05689149 -0.046365798 -0.11255014 0.07683021 0.059882354 -0.20993234 -0.090418935
-0.12605074 0.029594481 -0.106592186 -0.16148089 0.086320825 0.02219157 -0.093533956 -0.04144353
0.074117646 -0.10935834 0.094274 -0.029129956 -0.023483545 -0.33059946 0.15733585 -0.85343915
0.018062465 -0.08515485 -0.058853548 0.0036558146 -0.8800353 -0.022596397 -1.5443473 -0.009929974
-0.29668808 -0.15138324 -0.12071601 -0.15855218 0.063062035 -0.19346783 0.44598562 0.058820084
-0.30079418 -8.118556e-05 0.034134023 0.014759126 -0.15117246 -0.5987858 -0.0677669 -0.03122171
-0.5514417 -0.33322266 -0.037748344 -0.11481137 -1.5249078 -1.0566715 0.014273167 0.07315241
-0.14614244 -0.72061384 0.17700264 0.02236917 -0.64258134 0.089669324 0.3181257 0.0069248695
-1.0949228 0.06837986 0.1471298 0.0059163123 -1.0989062 -0.11211294 -0.3030505 0.20760839
0.15416184 0.13465413 -0.08759645 -1.1357844 -0.024334352 0.06376527 0.027053127 -0.6786544
0.1422635 -0.1124141 0.11497523 -0.065262966 -0.35504344 0.1237059 -0.0027692611 0.16996802
-0.047015317 -0.47887766 0.007103092 -0.050757837 -0.32981303 -0.017004928 -0.29465097 0.033668924
-0.70675284 -0.115435705 -0.1406158 -4.2897735 0.05240293 0.099670276 -0.08102817 -0.9940243
-0.007707103 0.013716424 -0.032872684 -0.068861485 0.16618487 -0.043199934 -0.088608526 -0.06442031
0.07506814 0.0053034723 -0.28479296 0.085411415 0.09923685 -0.55364466 -0.14058742 -0.063886106
0.042825755 0.022925539 -0.07233636 -0.11706199 -0.08357255 -0.0011026307 -0.044153616 -0.16409181
-0.14393014 0.015227161 0.023413084 0.11954175 -0.222532 -0.10170007 -0.1012024 -0.01889432
0.07180378 0.16400321 0.14650927 -0.03464455 0.07502249 -0.12599838 -0.0051957723 0.14425494
-0.04396971 -0.6532431 -0.35123256 0.1002948 -0.16309944 0.117105335 0.09850039 0.1422433
0.053048518 -0.24048752 0.0964529 -0.9872423 -0.073141895 -0.0832586 0.07593815 0.33653152
-0.11490139 0.18191871 -0.092016615 -0.043367185 0.035399668 -0.026098484 -0.3894417 -0.08278322

bias f4 [128]
00000000: 183e 013f ee3f bbbe 0f4c 91bf 68ab 64bf
00000010: 6b07 45bf 16df 4dbf 232c 0d3f 4dc7 f8bf
00000020: 6a06 9cbf e47d 85bf b0a3 acbf ec47 58c0
00000030: c086 73bf 5631 65bf bc64 a340 c0ca 74bf
00000040: 006f 8ebf 9777 9cbf 4aae 86bf a531 88bf
00000050: 77f0 c0bf 2975 c9be e669 37bf c920 9ebf
00000060: 70c6 b5bf 93d1 6abf d936 06bf 44a1 00bf
00000070: abe1 dfbf 3cda 533f 1ca6 9c3e 5911 a4bf
00000080: e5fb 01bf b6d4 23bf c701 0ebf 8add ccbf
00000090: 1951 46bf 4848 5ac0 bdc4 04c0 3280 0dc0
000000a0: fd7d 7abf 5f2d cdbf 2700 e9be 99be 08c0
000000b0: 640a b5bf a089 e3bf 5883 c7bf 443c 86bf
000000c0: 4a77 cc3f 5303 dcbf 0338 b2bf f88c 2bbf
000000d0: 6931 89bf f413 aabf d023 e1be 1552 afbf
000000e0: 9a8d b2bf e38a 4ac0 1b0a dbbf e6f4 3dbf
000000f0: ba11 20bf 0baf bc3f 8b09 51bf 8163 67bf
00000100: 38b2 77bf 7bbf 2cc0 7f27 91bf abbb 08c0
00000110: ec90 983e 2fee 0c41 a82a 3a40 cf36 cfbf
00000120: c415 91bf 5884 9dbf 6f42 8fbf 45c9 fcbe
00000130: 9911 babf 9c08 72bf aba3 1f3e b1da 91bf
00000140: 29b3 78bf 7c17 1abf 5c98 d4bf 222e 19bf
00000150: 82e0 6fbf e3a8 c1be ed7d 57bf b8d7 95bf
00000160: a3c6 75bf 7fd1 c0bf 5ec6 a7bf 71a3 8cbf
00000170: 043b 8dbf 8aaf f8bf 704e 4abf e535 3abf
00000180: 22c6 2ec0 7cfb 32bf 6aec 30bf 3bdc 74bf
00000190: 10fb f7bf f1d3 a7bf 7259 4fbf 6426 6940
000001a0: 29b2 b2bf 976f 81bf c415 75bf c42f 2cbf
000001b0: f5be 89bf 0995 a2bf d508 84bf 763d c7bf
000001c0: e75c 95bf ee28 0640 268b 87bf 3abd d2be
000001d0: d8fb 8ebf 3ee4 003f e4b4 c3be 9610 6cbf
000001e0: fc89 a6bf 994b cdbf 123b a6bf 7379 fbbe
000001f0: 32e0 5bbf 1390 00bd 69ab f4be 65e4 27bf
0.5048537 -0.36572212 -1.1351336 -0.89324045 -0.76964444 -0.8041853 0.5514547 -1.9435822
-1.2189457 -1.0429044 -1.3487453 -3.3793898 -0.9512749 -0.89528406 5.1060467 -0.9562187
-1.1127625 -1.2223996 -1.0521939 -1.064015 -1.5073384 -0.393472 -0.71645963 -1.2353755
-1.4201183 -0.91726035 -0.5242744 -0.5024607 -1.7490743 0.82754874 0.3059548 -1.2817794
-0.50774986 -0.63996446 -0.5547146 -1.6005108 -0.77467495 -3.4106617 -2.074508 -2.2109494
-0.9784849 -1.6029471 -0.4550793 -2.1366332 -1.4143796 -1.7776375 -1.5586958 -1.0487142
1.5973904 -1.7188514 -1.3923343 -0.67011976 -1.0718204 -1.3287339 -0.43972635 -1.3696924
-1.3949463 -3.164727 -1.7112459 -0.7420181 -0.6252705 1.4740919 -0.81655186 -0.90386206
-0.96756315 -2.699187 -1.1340178 -2.1364543 0.29798067 8.80815 2.9088535 -1.6188601
-1.1334767 -1.2306013 -1.1192149 -0.49372306 -1.453662 -0.94544387 0.15589778 -1.1394864
-0.97148377 -0.60192084 -1.6608996 -0.5983602 -0.93701947 -0.37824163 -0.8417652 -1.1706457
-0.9600622 -1.5063933 -1.3107412 -1.0987378 -1.1033635 -1.942857 -0.79025936 -0.72738487
-2.730843 -0.69914985 -0.6911074 -0.95648545 -1.9373493 -1.3111554 -0.8099586 3.6429682
-1.396062 -1.011218 -0.95736337 -0.67260385 -1.07614 -1.2701732 -1.0315195 -1.5565631
-1.1668977 2.0962481 -1.058934 -0.41159993 -1.1170607 0.5034827 -0.38223946 -0.9221281
-1.301086 -1.6038696 -1.2986777 -0.49116096 -0.8588897 -0.0313874 -0.47787026 -0.6558288

weight f4 [1, 128]
00000000: e7e7 ccbe d042 3e3e f944 3eba b1ca 43bd
00000010: 88bf c8bc b83e 4e3d 472b 08be 3402 1b3e
00000020: 7e8e 223e f2f8 b3bc 2974 c8bd 6703 973d
00000030: 22c7 8dbd cb7b 28bd 4a19 8abe 4287 893d
00000040: b1b2 35be 2996 78bd 0c66 13bb 6c67 753e
00000050: 4b9d 77bd faa7 c1be cdd6 b43d 5083 f93d
00000060: 9b13 ef3d 37f4 02bd bf2e 4dbd df65 57bd
00000070: 6545 ac3c e84c 2dbe f4aa 22be db4b 02be
00000080: f257 08bd 745f 4abc dcfe ad3d 3136 fdbd
00000090: 4ba0 efbd 051d 433e e35a 0b3e ed86 9f3d
000000a0: 00e5 e6bd 7ac1 823a 4b7b ee3e 1df1 353d
000000b0: 991b e2bd 7067 823d 8535 0fbe 31d2 ff3d
000000c0: 8628 61be 64ee c2bd 9805 37be 8ce2 6bbd
000000d0: 9ffd 4e3e ea23 7b3b b677 d73d 871b 713d
000000e0: 962b 1d3e a316 d13d 14b5 94bd f3f7 56bb
000000f0: a252 eebd 2781 153e eafa 963b 6b18 89bd
00000100: 7f09 9e3e 144a 733c c050 843d fd04 b03d
00000110: f4d7 00be 8b8e 7abe 2759 92be dd83 a03b
00000120: f0f0 4b3d a7c2 0bbe c326 0fbd d645 b03e
00000130: 3b26 123d e9b8 bc3d 8175 e0bd 4c23 ed3c
00000140: 964e 183e 2962 533e 5e2b efbd dd6f 5fbe
00000150: 8a50 1e3d b4f7 063e 78bc 003e 8948 d03d
00000160: b696 d0be e5e9 9ebd cb7a 21bd 7ab3 36be
00000170: 6c1e b43e 3b48 083e 002e 9fbd 9ec8 12be
00000180: e51c f83d 1390 2d39 d6c0 dc3c e1e5 9c3d
00000190: 2efb adbd 312a 64bd c69c 83bd 5354 79be
000001a0: e34f d1bd 5fbf 713d ec66 3bbd 262d 943c
000001b0: 4a1a 243e e931 73bd bfac da3c b21e 02be
000001c0: 2d46 e03c 9160 60be 014b 9b3d 7aea 013e
000001d0: 95ba 533d 5169 6abe 324d 68bc d6d5 9bbc
000001e0: 968f 11bd 72e3 f83c 2147 fdbc fff1 3cbd
000001f0: 8515 fb3c 4c2c 8dbd 8b01 a6bd a5c5 013d
-0.40020677 0.18580174 -0.00072582025 -0.047800723 -0.024505392 0.050352782 -0.13297759 0.15137559
0.15874669 -0.021969292 -0.09787781 0.07373696 -0.06922747 -0.041133683 -0.2697242 0.067152515
-0.17743947 -0.06069008 -0.0022491245 0.23965234 -0.06045274 -0.37823468 0.088300325 0.12183249
0.11673661 -0.031971183 -0.05009341 -0.052587386 0.021029184 -0.16923869 -0.15885526 -0.12724249
-0.033286996 -0.012351859 0.08495876 -0.12363852 -0.11700495 0.19054039 0.1360889 0.07789407
-0.11274147 0.0009975873 0.4657844 0.044419397 -0.1104042 0.063673854 -0.1398526 0.12491263
-0.21988115 -0.09518126 -0.17873228 -0.0575891 0.20213936 0.0038320967 0.1052088 0.058864143
0.15348658 0.10209396 -0.072611004 -0.0032801598 -0.11636855 0.14600049 0.004607548 -0.066941105
0.3086662 0.014849205 0.06460714 0.085947014 -0.1258238 -0.24468438 -0.28583643 0.004898532
0.049790323 -0.13648473 -0.034949075 0.3442828 0.03568099 0.09214956 -0.10959912 0.028947495
0.14873728 0.20642914 -0.116781935 -0.21820016 0.038651027 0.13180429 0.12571895 0.10170085
-0.40739983 -0.077594556 -0.039423745 -0.17841902 0.3517946 0.13308804 -0.07772446 -0.14334342
0.12114886 0.00016552238 0.02694742 0.076610334 -0.08495174 -0.0557043 -0.064263865 -0.24348573
-0.10220315 0.059020396 -0.04575245 0.018087935 0.16025653 -0.05937377 0.0266937 -0.12707022
0.027377212 -0.21911837 0.07582665 0.12687102 0.05169161 -0.22891738 -0.014178561 -0.019022863
-0.035537325 0.030381892 -0.030917706 -0.046129223 0.03064991 -0.068932146 -0.08105763 0.03168263
