Model/trained_model.pth (torch, 685384 bytes, 7 tensors)

weight f4 [512, 10]
00000000: 345a 15bb 0b2e 59bf 966d 3d3e 5cf6 d13c
00000010: 62dc d63e 7574 c0bd c960 41be 496b 8b3b
00000020: ba27 073c 4855 633e 3a3d 743c 41d5 3d3f
00000030: 2510 b23d a372 0f3d 6e1d b8bc 0035 483e
00000040: cd53 18bd 4c63 333e adbf 3e3e 68bf 26c0
00000050: a330 5bbd 084f b4be b5ad 2b3d 3319 2bbe
00000060: c0f8 f6bd 025c f0be 1b13 cc3c 3421 b6bd
00000070: 77a1 20be f7b8 06bf 9ce5 13be d1c9 59c0
00000080: e970 3f3c 6335 0e3d d28a d8bb e4b1 573e
00000090: ecaf 8b3a eb6b aabe 4f0b ad3d b57f 2a40
000000a0: 1b90 f7bd 4033 a0be 4fb7 68bc f929 a03c
000000b0: a419 22be c4ae eabd 5db5 03be 51f2 9bbe
000000c0: cd63 6dbe 7f4c 36be dc34 d9bd 80d4 5bbf
000000d0: 77aa b6be 2e1e fc3c 9bed 92bd ad15 13bf
000000e0: 79af 60be 5120 283e 1c25 bd3d c31f 3fbe
000000f0: 81e0 90bc 67e6 d13e 7ebc 1c3d 4891 f43b
00000100: 018d 6b3b 5791 62be 9e10 62be 3e66 b5bd
00000110: 6152 2ebe b4c0 35bf 6e14 823d 723d 043f
00000120: 9301 00be 3cc5 5e3e c036 ea3c 8972 8f3e
00000130: 12d9 c3bd 2567 0a3d ebbb 58bd 9aa2 0ac0
00000140: 67ad 12bd e1ca 95be 7b6c 9f3d 8277 10bc
00000150: f645 703d 2cf3 06be bd02 b5bd c19a bfbc
00000160: 3c0a 123c ac1f cbbe 0f13 243e 0061 453f
00000170: a430 06bd 258e 19bd ad01 e83d a7ab 5b3d
00000180: 5714 05bd 2140 aa3d 09f2 1a3e edea 09c0
00000190: 0d10 48ba cfcd efbe b374 8f3d 5acd 0ebd
000001a0: 2132 973e 1fc6 2fbf 6674 a6be db97 d4bd
000001b0: 56b6 c6bd 4f2a afbe 3624 95be 99e8 f23e
000001c0: 3316 cfbb b9e3 97be f8f1 813d f4e7 0d3d
000001d0: d016 98be b53c 1d3c cf17 2fbe cfa4 fcbe
000001e0: 9278 8abd 3011 973d 8226 89bc e34b 093d
000001f0: f010 da3c 7323 32bd 47dc 533a f812 973b
00000200: 7f8a 28bd b24e 23be 2590 9abe 3744 22c0
00000210: 9209 473c aaa4 fdbd 64a5 81bc 9841 e53d
00000220: ad0d 8e3d 6b2a 7dbd 3531 fdbe 931c ac3f
00000230: 1b2d d73d effe 8fbf d599 953d 1429 6cbd
00000240: 913b 003d 2ea1 813e c4a0 db3d 066e ba3c
00000250: 77a1 e03d 1aa5 0940 74e3 92bc cf5a 14be
00000260: a358 3ebd 8ea4 1a3d 844f 003d 5a14 853c
00000270: 69c7 01bd 5524 c63b d603 263c 07e8 1e3d
00000280: 85bd 1dbe e671 8b3f 4a67 103c cc22 03bc
00000290: 0e7e 183b 3fc7 c93c 4ea5 37ba ef78 673c
000002a0: 0112 0c3e c1a6 c3bf 1804 803d b17b a3be
000002b0: ea3c f1be 13d8 eebd 268d 64be c688 c9bd
000002c0: bbf4 dabe 05cf 713e bf1f 303e 68a6 2cbe
000002d0: 3407 1b3e d1b1 323f 148c b33c 16d0 6239
000002e0: 67c9 30bc d75a 23bf 7c8e 77be 4a4a 043e
000002f0: b0b1 9c3e 8287 b8bf 6da5 003e 1dc1 bfbf
00000300: 216c 1c3e ad95 a1bc e904 363e c167 e33e
00000310: 59aa 31be c9e2 2e3e e0f7 9ebc 0534 9f3f
00000320: 6cb6 93bb 1d38 afbe 5fd7 d8bc bf2e 8ebd
00000330: 8258 f4bd 5db0 68be 9930 c7be 48b5 cf3a
00000340: 7660 f03c 03b8 0d3d 652e 233e e8be 11c0
00000350: fd1f e8ba 6cd6 70bc 790b b53a 6597 29bd
00000360: a355 383c 34ca 6fbe 9360 b53c ed6c 1840
00000370: d393 6fbe 9f29 99be a36d 45be 7368 9abc
00000380: 7698 e9bd 1da9 8dbe 9e75 6c3e ac86 f9bc
00000390: 22d2 84be 59cf 32bd 0be0 8b3e a824 6d3f
000003a0: 1968 a53e ebd1 5cbe ff9c 91be 94d6 a3be
000003b0: 7faf f4be 1679 d13d b23f 7e3e a8b6 9cbf
000003c0: f7ae d83d 37c0 123f 0ba0 afbd da44 5b3e
000003d0: 4712 bdbe f47e e2bd 890c 9ebe 1931 173e
000003e0: ea2b 2e3d 7126 0fbf bcdd c1bd 6dae 21be
000003f0: ba97 c5bc 75b8 513c 9a0f b3bc a3e5 bfbd
-0.002278936 -0.8483588 0.18498835 0.025630169 0.41965014 -0.093972124 -0.18884577 0.0042547327
0.008249218 0.22200501 0.014907176 0.74153525 0.086944856 0.035021435 -0.02247497 0.19551468
-0.037189294 0.17518348 0.18627806 -2.6054325 -0.05351318 -0.35216546 0.041913707 -0.16708831
-0.12059164 -0.46945196 0.024911454 -0.08893052 -0.15686594 -0.52625984 -0.14443058 -3.402943
0.011684635 0.034718882 -0.0066083455 0.21063954 0.0010657287 -0.3328546 0.084494226 2.6640446
-0.12088033 -0.312891 -0.01420386 0.019551264 -0.15830094 -0.11459115 -0.12862153 -0.3045831
-0.23182602 -0.17802618 -0.10605785 -0.85871124 -0.3567693 0.03077611 -0.07174226 -0.5745495
-0.21941938 0.16418578 0.09235594 -0.1866446 -0.017685177 0.40996096 0.038265698 0.007463608
0.00359422 -0.22125755 -0.22076651 -0.08857392 -0.17023613 -0.70997167 0.06351553 0.5165626
-0.125006 0.21754926 0.02859056 0.2801707 -0.09562887 0.033789773 -0.052913588 -2.1661744
-0.0358099 -0.29256347 0.07784363 -0.008817555 0.05866047 -0.131787 -0.08838413 -0.023389222
0.008913573 -0.396726 0.16022895 0.77101135 -0.03276123 -0.037489075 0.11328445 0.053630497
-0.0324901 0.08313013 0.15131392 -2.1549637 -0.0007631786 -0.46836707 0.070046805 -0.034863807
0.29530433 -0.68661684 -0.3251068 -0.10380527 -0.097027466 -0.34211966 -0.2912919 0.47443083
-0.006319785 -0.29665926 0.0634498 0.034645036 -0.29704905 0.009596993 -0.17098926 -0.4934449
-0.06761278 0.07376325 -0.016741995 0.033519637 0.026619405 -0.04349084 0.0008081835 0.0046104155
-0.041147705 -0.15947989 -0.301881 -2.5354135 0.012148278 -0.12384923 -0.015825935 0.11194152
0.06936202 -0.06180803 -0.49451604 1.344622 0.1050665 -1.1249675 0.07304732 -0.057656363
0.031306807 0.25318283 0.10724023 0.022757541 0.10968297 2.150702 -0.017930724 -0.14487766
-0.04647125 0.037754588 0.031325832 0.016245056 -0.031684313 0.0060468116 0.0101327505 0.038795497
-0.15404327 1.0894134 0.0088136885 -0.008003902 0.0023268494 0.02463114 -0.00070055283 0.014127954
0.13678743 -1.5285264 0.06250781 -0.31930307 -0.47116786 -0.11662307 -0.22319469 -0.098405406
-0.4276484 0.23614128 0.1719961 -0.16860354 0.15139467 0.69802576 0.02191738 0.00021630558
-0.010790206 -0.63810486 -0.24175447 0.12918964 0.30604315 -1.4416354 0.12563105 -1.4980808
0.15275623 -0.019724691 0.1777531 0.44415095 -0.17350139 0.17078699 -0.019405305 1.243775
-0.0045078304 -0.342225 -0.026469884 -0.0694251 -0.11930944 -0.22723527 -0.38904265 0.0015846873
0.029342871 0.034599315 0.15935667 -2.277277 -0.0017709729 -0.01469956 0.0013812623 -0.041404147
0.011250886 -0.23416978 0.022140777 2.3816483 -0.23396234 -0.29914567 -0.19280104 -0.018848633
-0.11406033 -0.27668086 0.23091742 -0.030459724 -0.2594157 -0.043654773 0.2731937 0.9263406
0.32305983 -0.21564452 -0.2844009 -0.31999648 -0.47790143 0.102281734 0.24828985 -1.2243242
0.10580247 0.57324547 -0.08575448 0.21412984 -0.36928007 -0.11059371 -0.3086894 0.14764823
0.04252235 -0.5591803 -0.094661206 -0.15789194 -0.0241202 0.012800326 -0.021858025 -0.093699716

bias f4 [512]
00000000: 617f a4bf 28ff 1ec0 7c4b ddbf 3cc4 493e
00000010: 83b3 76bf 7bf6 2fc0 6c7e 4fbf 1860 17c0
00000020: 4724 71bf 801c 08c0 2d52 e0bf 5b9e 9dbf
00000030: 1f39 78be da92 1ebf 7e74 f4be 4bf1 91be
00000040: b3a6 3dbf f75d 30c0 fa24 b9bf f8c0 80bf
00000050: b3c2 a8bf 25b4 153f d2fd 9cbf 4f0e 15c0
00000060: 6551 22c0 c638 b4be 2e86 74bf 377b fdbf
00000070: 964c 1fc0 9a94 53bf 17b7 0bc0 a8de a2bf
00000080: 0466 76bf d268 9fbe 33fa 22be bbda 2ac0
00000090: 8222 e6bf a93f abbf 7e2b 1dc0 6137 3bc0
000000a0: 9d89 cabd 802e 49bf cc9c dbbe 0d35 7fbf
000000b0: d0b5 0dc0 e927 94bf c084 2dc0 b6a9 2abf
000000c0: 92d3 e3be 1a22 8fbe b3c5 eabe 93f9 75bf
000000d0: d94c b7be 12f8 24be 9bba 87bf 423a 66bf
000000e0: 65a8 38bf 2cb5 8ebe a56f 00bf 94da 62be
000000f0: e350 5bbf fc76 043e 7d61 1dc0 5bf7 18c0
00000100: 2747 1fc0 062e bfbf 11d2 f4be d27a 30c0
00000110: cce0 aabf 8d7e 03c0 341b 35bf afb6 82bf
00000120: 529d 293f 6a05 d0bf 223e e1bf 91c7 dabf
00000130: 84e6 8dbe abda 17c0 e066 d9bf 4463 a1be
00000140: 860b d5be cc77 09c0 fdb6 fcbf 715a 5cbf
00000150: 9c77 10bf 93f1 d2bf fc50 6fbf bf09 27bf
00000160: b8b1 52bf 6da4 bfbf 83f6 3ec0 dfd3 6fbe
00000170: 6d7a 4abe a75c fbbf d57e 06c0 e328 65be
00000180: 943b 88be 0c16 9ebf f721 7fbe 3a57 babf
00000190: c4d2 a8bf 4258 d1bf a038 81be 162d c4bf
000001a0: e84c 77bf 0191 0dc0 e7f4 18bf 3dca aabf
000001b0: 851e 8bbe 499c 9abe b9e0 05be 8484 d3bf
000001c0: 69d2 85be c503 18c0 eb1e b9be 7ecb 6bbf
000001d0: a92e 86be b78b 5bbf af76 debf 4758 25bf
000001e0: bb72 a7bf 8968 c8bf 5f7a f5bf d468 2bc0
000001f0: 728f bfbe e464 9bbf 4b81 0dc0 d435 01c0
00000200: f9f2 8abf cb1f aabe 21b2 10c0 8ffb 30bf
00000210: 5db9 a6be 15dc 45bf ef51 5ec0 b885 8ebf
00000220: c381 9abf 24aa 9abe 6762 d9bf 5464 b2be
00000230: 4fd8 11c0 6721 d2bf b798 8bbe cad9 e2bf
00000240: 6d16 cdbf 8bf1 0cc0 116d abbf 3d7f 82bf
00000250: 02a2 25c0 9340 09c0 e1a9 11c0 42d4 a3be
00000260: 497f a8bf baae 38be 8e8e babe 2903 a5be
00000270: a242 61be fe37 84be 08c7 a1bf 7d87 82bf
00000280: 122c 88bf 2102 f4bd 8a84 04be 9ced 02c0
00000290: 183a 76bf c251 54c0 e3c8 b6be 4fc1 05c0
000002a0: 23c9 c2bf 63de a3bf 8e8a 10bf 9d76 36be
000002b0: a97f a5bf ec96 a9be 5a3c edbe 38b2 d0bf
000002c0: cde2 24bf c263 01c0 6171 c5bf 048d 06c0
000002d0: c21d bebd bbaf 2dbf d0b8 aebe 165c 91be
000002e0: c01e 99bf 3714 a3bf 9dd0 8bbf e8cd a4bf
000002f0: b1b7 41c0 ce36 c5bf 7111 aabf 8b9b dcbf
00000300: 5196 6ebf fb56 d4bf 36af a3bf e14d 5fbe
00000310: 1b7c 14c0 8861 ccbe c28e abbf aa34 b8bf
00000320: 69dc c5bf 980d e7be 553f 04c0 c90c 6bbf
00000330: 1b91 65bf 271c 90bf 3657 21bf f240 e0be
00000340: 8b84 363e 86a3 5ebf aacc fdbf 7324 17bf
00000350: 0d1e 57bf 5646 29bf 2bc9 c7bf aeec 5bbf
00000360: 28a2 abbf ecd8 b7bf 30ae 45be f79f cbbf
00000370: d890 e1bf a078 6ebe ae02 b4be b6c6 82bf
00000380: b215 adbf a410 efbe 8e9a 373f 6f48 acbf
00000390: 1a1f 46bf 0d05 43be 63af 47bf 95cf 99be
000003a0: bdb1 05bf b9f2 39c0 349a 3bbe 7e46 52bf
000003b0: b530 b1bf a350 1ec0 3b2a 0bc0 33c0 25bf
000003c0: 8757 0fc0 3ba0 c1bf 2817 02c0 c889 30c0
000003d0: 84b5 13c0 dbe8 efbf 67f5 b6bf 908e 0ac0
000003e0: d058 ebbf e31a 18c0 cf83 02c0 c3e6 06c0
000003f0: 7e70 f8bf 2151 c0bf 5ee5 83bf c678 08c0
-1.2851373 -2.4843235 -1.7288661 0.19703764 -0.96367663 -2.749419 -0.8105228 -2.36524
-0.9419598 -2.1267395 -1.7525078 -1.2313951 -0.2424054 -0.6194283 -0.47745126 -0.28504404
-0.7408249 -2.7557352 -1.4464409 -1.0058889 -1.3184417 0.58478004 -1.226496 -2.3289983
-2.536218 -0.35199565 -0.9551724 -1.9803227 -2.4890494 -0.82648623 -2.18305 -1.2724199
-0.96249413 -0.3113466 -0.15915756 -2.6696002 -1.7979281 -1.3378803 -2.4557796 -2.925255
-0.09889529 -0.7858658 -0.42893064 -0.99690324 -2.214222 -1.157468 -2.7112274 -0.6666521
-0.44497353 -0.27955705 -0.45853958 -0.96083945 -0.35800818 -0.16110256 -1.0603822 -0.89932644
-0.7213195 -0.27872598 -0.50170356 -0.22153693 -0.856703 0.12936014 -2.4590752 -2.3900974
-2.4887178 -1.493592 -0.47816518 -2.7574964 -1.3349853 -2.054599 -0.70744634 -1.0212001
0.66255677 -1.6251652 -1.7597086 -1.7092153 -0.27714932 -2.3727214 -1.698452 -0.31521046
-0.41610354 -2.1479368 -1.9743344 -0.860755 -0.5643251 -1.6479973 -0.9348295 -0.65249246
-0.8230243 -1.4972054 -2.983796 -0.23420666 -0.19773264 -1.963765 -2.1014912 -0.22378878
-0.26607955 -1.2350478 -0.249153 -1.455787 -1.318932 -1.6355059 -0.25238514 -1.5326259
-0.96601725 -2.2119753 -0.5974869 -1.3342968 -0.27171722 -0.3019736 -0.13074006 -1.6524816
-0.26137093 -2.37523 -0.361564 -0.9210738 -0.26207474 -0.8576006 -1.7379969 -0.64587826
-1.3081888 -1.5656902 -1.917797 -2.6782732 -0.37414128 -1.2140164 -2.2110164 -2.0189104
-1.0855399 -0.3322738 -2.2608721 -0.6913385 -0.32563296 -0.77288944 -3.4737508 -1.1134558
-1.207085 -0.30207932 -1.6983155 -0.3484217 -2.2788274 -1.6416444 -0.2726495 -1.7722714
-1.6022469 -2.2022426 -1.339266 -1.019508 -2.5880132 -2.1445663 -2.2759936 -0.31997877
-1.3163844 -0.18035403 -0.36436886 -0.32228974 -0.21998075 -0.2582397 -1.2638865 -1.0197598
-1.0638449 -0.119144686 -0.12941185 -2.0457525 -0.96182394 -3.31749 -0.3570014 -2.0899236
-1.5217632 -1.2802242 -0.5646142 -0.17818685 -1.2929584 -0.33122957 -0.46335107 -1.6304388
-0.6440857 -2.0217137 -1.5425225 -2.102357 -0.092830196 -0.6784627 -0.34125376 -0.28390568
-1.1962509 -1.2740544 -1.0923039 -1.2875338 -3.0268366 -1.540735 -1.3286573 -1.7234968
-0.93198115 -1.6589044 -1.2787845 -0.21807052 -2.3200748 -0.3991816 -1.3402941 -1.4391072
-1.5457889 -0.4512756 -2.0663655 -0.91816384 -0.8967454 -1.1258591 -0.630237 -0.4379955
0.17823999 -0.86968267 -1.9828084 -0.5903999 -0.8403023 -0.6612295 -1.5608267 -0.8590802
-1.3408861 -1.4363074 -0.19304729 -1.5908192 -1.7622328 -0.23288202 -0.35158294 -1.0216892
-1.3522246 -0.46692383 0.71720207 -1.3459605 -0.7739121 -0.19044895 -0.78001994 -0.30041185
-0.5222433 -2.9054396 -0.18320543 -0.8213881 -1.3842989 -2.4736717 -2.1744525 -0.647464
-2.2397172 -1.5127023 -2.0326633 -2.7584095 -2.3079538 -1.8742937 -1.4293641 -2.1649513
-1.8386478 -2.376641 -2.039295 -2.1078346 -1.940933 -1.5024759 -1.0304372 -2.1323714

weight f4 [256, 512]
00000000: adc8 44bc 23f8 c5bd a6db 163d c8c7 67bd
00000010: 68eb babd cea7 d5bd ed46 a7bd 13d8 c2bd
00000020: cf61 cdbb 3817 8fbb 13f1 75bd 2a2a 943b
00000030: fcdb e9bd 57aa 4bbd 907c 50bc 762a efbc
00000040: 23cb 823d a3e9 86bd a2b8 ef3b b3cf bb3c
00000050: 9ca2 a6bd 54be 353d 25b4 a5bc 61cf 92bc
00000060: 5177 5fbd c98b ddbd b48c 873c cb24 b9bc
00000070: 400e 87bd 78d2 08bd 545c a6bd 6ebd b3bd
00000080: 106f 48be 0226 e0bd 4d6f 8abd bf9d b53c
00000090: 4a05 bdbd 950d 2cbd 7d7f 04bd cb1f 94bd
000000a0: 8d1a 61bd f822 cabd 9302 1fbc bd10 dd3d
000000b0: 8cd9 c6bd 8389 6fbe 4bee bebd 300d 58bd
000000c0: 90f6 813c f3b3 073d 0d15 483d d806 d8bd
000000d0: 8649 7abc b579 02be b353 433d 6220 773d
000000e0: e473 a3bd 02d2 66bd d16c 00be 495e 183c
000000f0: 1573 3abc 27c8 e2bd 1403 2abd 7ae3 7e3d
00000100: fa7c 003e 95cb 80bd 3354 4ebc 0607 95bd
00000110: 356b c7bb afba 84bc 0176 96bd 8192 f4bc
00000120: 0035 03be c173 f13c 9d89 b1bd 7af0 463d
00000130: 5066 393d 701a 9ebe c236 1cbd ab5c c1bd
00000140: 1834 81bd 9934 31be 88b0 46bd 3163 9ebd
00000150: 416f c3bd 4ac7 16bc 1afd f3bc 801b 193d
00000160: 99fa b3bd 53c8 95bd 302f 72bd 11f5 9fbd
00000170: 2785 e7bd 1264 cdbd 8738 66bd de78 353d
00000180: 3503 a8bd 4057 e9bd 54ac a3bd a004 b4bd
00000190: dc76 9dbd 8574 d3bd 8ab5 e2bd 1af1 7cbd
000001a0: 6b60 20be 0b2d a5bc 367b 893c 202e 5abd
000001b0: 6667 c5bc 08b0 c3bd e34c 0c3d 82fd 01be
000001c0: 79d1 d83a 4223 7cbd aaeb df3c 6fdd d2bd
000001d0: 9b00 43bd 38b1 edbc 9fc5 62bd e9a3 62bb
000001e0: f163 4c3a 497c 8dbd e49d 07bc e631 07be
000001f0: c510 24bd 2103 e4bd bb3d 083d d5d8 1fbe
00000200: f67b b7bd b985 88bd edea ffbc c761 c9bc
00000210: 0789 803c c3f1 e1bc e1a3 20bc a125 fcbd
00000220: 0bc2 e9bd a067 61bd e846 40bd 8dce acbd
00000230: 905d aa3c 9aa5 f3bd 0643 02be 09b0 96bd
00000240: f2e2 8fbe dae6 14bd 95d1 b3bd a97f bbbd
00000250: c007 8ebd f20c 49bd a565 b1bd bc2f 29ba
00000260: 0fc6 d0b8 11dd 83bd 6c24 4ebe 047c ca3b
00000270: ac6f b4bd bd0b f2bb 43fe 69bd 4951 3b3d
00000280: 2987 35bd 5d9d cbbc 8f5d 0e3d 0de3 bcbd
00000290: 63c4 1fbe f038 363d c7fe acbd a0c9 2e3c
000002a0: 37f2 c9bd fef5 a9bd 106c f0bd f235 2a3c
000002b0: 54a9 17bd e6ef efbd 2733 cebd 7417 e6bc
000002c0: 9830 64bd fa8d 76bd 97fb cdbd 2080 efbd
000002d0: 5307 2dbe 37a5 02be ea2f 153c 9cf5 483c
000002e0: e0cd c4bb 35c2 e73c d0db 3ebd 1223 80bd
000002f0: f7a6 b0bc 4477 17bd 7828 9db8 5d8a a23b
00000300: aec1 19bc dc98 62bd 42f7 d13a 2fd0 06be
00000310: b52f 49bd 4384 4fbd 5ecd febd 1557 97bd
00000320: ddf3 463d c90a d33d 4130 7ebe 5eae e2bd
00000330: 6ac7 5c3c f5e9 8c3d 018a 473d a82e fc3c
00000340: 1958 b4bd 5d9d 20bd ec75 433d 182e a4ba
00000350: 0326 d23c d525 5fbd c5ef d9bd 789f 8cbd
00000360: 0f5e 4dbe 1d45 d4bc 88fa 66bd d242 8abd
00000370: 0368 bfbd 0899 3fbb 0ade 2d3d cdd8 9bbd
00000380: 70d4 eebd 4028 78bd fd44 c8bc 5689 03bd
00000390: 2e93 a3bd fe8a 523d 69be cabd e1e9 aebc
000003a0: a0e7 b43c aff0 a8bd 96c2 6dbe dca4 e4bd
000003b0: 25b2 f5bd b94e 00be e66c febd 42d2 763c
000003c0: 7067 9ebc 7a02 40be 1823 09bd 7cf9 f7bd
000003d0: 7459 2b3d de2f 7fbe e51e b8bd 32f6 c53c
000003e0: 89b2 6abd 03a2 ebbd 37ab 12be 81d6 b9bd
000003f0: 39b3 cd3c 1173 c73c 38b3 ee38 af8a e33c
-0.012010735 -0.09666469 0.036830567 -0.05658701 -0.091269314 -0.10432397 -0.08167825 -0.09513869
-0.006267763 -0.0043667816 -0.06004436 0.004521628 -0.11418912 -0.049722996 -0.0127250105 -0.029195052
0.063864015 -0.065875314 0.007315711 0.022926187 -0.08136484 0.044370964 -0.020227501 -0.017921152
-0.05455715 -0.108176775 0.016546585 -0.022600552 -0.06594515 -0.033403844 -0.08123079 -0.08776365
-0.19573617 -0.109447494 -0.0675951 0.022169946 -0.092295244 -0.04200514 -0.032348145 -0.072326265
-0.05495696 -0.09869951 -0.009705204 0.10794208 -0.097094625 -0.233923 -0.093227945 -0.05274695
0.01586464 0.033130597 0.0488482 -0.1054818 -0.015276318 -0.1274174 0.047687244 0.060333617
-0.07981089 -0.056352623 -0.1254151 0.009299823 -0.011379977 -0.11073332 -0.04150684 0.062228657
0.12547675 -0.0628883 -0.012593317 -0.0727673 -0.006085778 -0.016202299 -0.07346726 -0.029855015
-0.12813187 0.029474141 -0.08668826 0.04856918 0.04526359 -0.30879545 -0.03813816 -0.09441503
-0.06308764 -0.1730522 -0.048508197 -0.07733763 -0.095427044 -0.009202788 -0.029783774 0.03737974
-0.08788032 -0.073135994 -0.059127033 -0.078104146 -0.11304694 -0.100288525 -0.056206252 0.04430472
-0.08203737 -0.11393595 -0.07991853 -0.08789945 -0.07688686 -0.10324959 -0.11069782 -0.06175337
-0.1566178 -0.02016308 0.016782384 -0.053266644 -0.024097156 -0.0955506 0.034253012 -0.12694362
0.001654192 -0.061557062 0.027334053 -0.10296141 -0.047608 -0.029015169 -0.055364247 -0.0034582561
0.0007796875 -0.06908471 -0.00827739 -0.13202628 -0.040055055 -0.11133409 0.033261996 -0.15610059
-0.089591905 -0.066661306 -0.031239951 -0.024582757 0.01569034 -0.027581101 -0.009804697 -0.12311865
-0.11413964 -0.055030465 -0.04694262 -0.08437834 0.020796567 -0.1189682 -0.1272088 -0.07357795
-0.28102833 -0.03635297 -0.08780209 -0.091552086 -0.06935072 -0.04908461 -0.08661965 -0.00064539514
-9.955104e-05 -0.064386494 -0.20131081 0.0061793346 -0.08810362 -0.007386653 -0.05712725 0.045731816
-0.044318352 -0.02485531 0.034757193 -0.09222994 -0.1560226 0.044487894 -0.084470324 0.010668188
-0.09860652 -0.082988724 -0.11739361 0.010388838 -0.03702672 -0.11715679 -0.1006835 -0.028087355
-0.055710405 -0.060193993 -0.100577526 -0.1169436 -0.16897325 -0.12758337 0.009105662 0.012265589
-0.0060059875 0.028290847 -0.04659635 -0.06256689 -0.02156399 -0.036978975 -7.493881e-05 0.004960342
-0.009384556 -0.05532156 0.0016019123 -0.13165353 -0.049117763 -0.050663244 -0.124415144 -0.073896565
0.04857241 0.103047915 -0.24823095 -0.11068414 0.013475278 0.06880561 0.048715595 0.030783966
-0.08805866 -0.039212573 0.04771988 -0.0012525944 0.025652891 -0.05447944 -0.106414355 -0.06866354
-0.20055412 -0.025911862 -0.05639127 -0.06751026 -0.093460105 -0.00292355 0.04244808 -0.07609711
-0.11661613 -0.06058526 -0.024446959 -0.032113396 -0.07987057 0.051402085 -0.09899599 -0.021351757
0.022083104 -0.08249032 -0.2321876 -0.11164257 -0.11996869 -0.1253003 -0.124231145 0.015064778
-0.019336432 -0.18750945 -0.033480734 -0.12108132 0.041833356 -0.24920604 -0.08990268 0.024165247
-0.05729917 -0.11505511 -0.14323126 -0.090741165 0.025109874 0.02434686 0.000113821065 0.02777609

bias f4 [256]
00000000: 97e4 83be 1de7 32be db12 bcbe b2a3 c2bd
00000010: 8cd5 03be 4c5d d0bd 2b61 0bbe b10d 2fbe
00000020: 51a8 29bf 4907 24be 6112 45be e43a 76be
00000030: c891 0ac0 6d92 f4bd e976 66bd d1c5 adbe
00000040: 5fa4 00be 1976 39be 9779 a1be 4e67 b1bd
00000050: 874c 67be 5669 18be 7ee5 1ebe d869 41bd
00000060: 1cc8 06bf 980d 523e 8d64 c2be 7245 04bd
00000070: a31b 02be 6bdb cebd 237f 8bbe 4fec 1cbf
00000080: 306a d1bd 60c6 b8bd eedb 793e 91b0 6b3d
00000090: fa5c ecbd 8b10 55be 3495 92bd f9e7 dcbd
000000a0: 8bae dbbc fcb3 d3bd 0b17 acbd ac4d f2bd
000000b0: a784 ae3d a34f bebd 5c95 13be b489 9cbe
000000c0: cf7e 95be e611 b9be b381 51be 3040 a0be
000000d0: 8e06 0b40 1aec 01bf f9fb 17be 5410 e0be
000000e0: d54a 003e 7c6d 3fbe 3fd9 cfbe a36d d6bd
000000f0: da5b 713d 56c8 b63a d03e d2be 8011 a3bd
00000100: 86d2 e03e 7415 c8be 25b7 453e 739b 60be
00000110: 4219 64be a2de 04bf 40c0 d7bd 8175 26be
00000120: e244 8f3d 5d5c 82be 5bb0 8bbe 392c cc3c
00000130: 8114 50be 5ef4 a3be 2eb7 883d 817c 15be
00000140: f893 443e 11be a8bd b220 84bf cbc5 eabd
00000150: c3d9 babd ef53 15be 3f0c 92be 0114 7f3d
00000160: 5d3e f9bd 92a7 bcbe 7982 0bbf 4b30 f83e
00000170: fcf4 00be 6460 57be 6cff 47be a15f 00be
00000180: 4be7 66be ce0b d43d c6b8 d9bd 7468 c9bc
00000190: bcac f1bd 9242 b7bc 2dc6 c4be 1bb4 3b3d
000001a0: 26fa 72be a2bf 11be 00f0 c0bd a0dd 0fbe
000001b0: 518f e5be ac46 eabc 2932 bebd 6b1b 49bd
000001c0: 9c5c abbd 821c 623e a5db 2cbf aa1c 79bd
000001d0: e2e0 263e d43c 0ebe be1d a6be 0e86 c3bd
000001e0: c0cd 25be 11b3 523f 9f5c acbe 8677 f0bd
000001f0: efda a9bd 40eb 4abd 3da9 5dbe 0826 d1be
00000200: dffc aebd 36a2 20be e6f8 60be 8d80 743d
00000210: 8d0f 7cbd 6191 14be 7a34 983e c5eb a9bd
00000220: f924 f43d 9cdf 0cbe 8582 4fbe 2554 083d
00000230: e112 56be 1c68 48bd 327d 323e 230d 6ebf
00000240: 7207 b9bd 112e 93bd 2ee9 9e3d 7062 14be
00000250: 802e 52be b9b1 86bd 5e40 663d 1245 d0bd
00000260: f710 e0bd 6a54 543e 55b0 513f 3cf8 32be
00000270: 56aa 04bf 5782 73be e963 30be 7b52 9fbe
00000280: c0f7 ecbd 59af 973e ca6c 3bbe c5b6 bcbd
00000290: 3ffb 7c3f 23ed 77bf 9fd0 35be 76e7 48be
000002a0: b322 74be dede c4bd 2e29 ecbe 7457 fdbd
000002b0: d12e 2abe 7d42 b73e 4a6e 1dbe 7dad 5ebd
000002c0: c874 19be 5863 a5bd dd01 e5bd 8f03 963d
000002d0: 0da7 63be 7a67 9abd fef6 cabe f461 d83b
000002e0: 3f0c 45be d262 89be 14dd f9bd 053f 8e3d
000002f0: ba25 64bd 2edb 29be cc63 6ebe 5367 9c3f
00000300: 4cf7 90be 4802 94be f3c4 edbe 1086 b6bd
00000310: aecd 0cbf bc1c 09be d1f7 78be 9829 e8bd
00000320: e801 85be 443c 87be 609c 9ebf 3da8 b4be
00000330: 0585 abbd b51d a83d 1a90 d3bb a1aa 00be
00000340: 51ec 8bbd 4fe6 62be 00ce 153e 5274 e3bd
00000350: 5669 aabd 1eda 23be 3948 3bbc 241d cbbd
00000360: a7d5 89be b069 05be fa4e f3bd bc62 7ebe
00000370: d85c 52bf 23ec 06be ad38 e33d 5fb3 00be
00000380: c526 5abe abeb 1fbe 400f 22be a859 05be
00000390: daa3 dcbd 80b7 ddbd d4dd 19be 1a1a 98be
000003a0: 03f9 7dbc 3b6d 81bd 6973 d5bd 0379 973d
000003b0: f175 a5be 6557 21be 21e5 4fbe 1d08 25be
000003c0: 8402 49bd 04bd b3bd 43c7 b0be 64e9 c6be
000003d0: c36c 893e 9518 293e f190 29be 490a 8bbe
000003e0: c46e b9bd afab 1cbe 2d6b 5ebd 9ae7 aa3d
000003f0: e028 febd d6f2 523e 4796 423f 82ad 71be
-0.25760338 -0.17470975 -0.36733136 -0.09503879 -0.1287443 -0.10174045 -0.13611285 -0.17095067
-0.66272455 -0.16018404 -0.19245292 -0.24045902 -2.1651478 -0.11941991 -0.056265745 -0.33939984
-0.12562703 -0.18111457 -0.31538078 -0.08662282 -0.22587787 -0.14883932 -0.15517232 -0.04722008
-0.5264909 0.20512998 -0.3796734 -0.03229279 -0.12705855 -0.101004444 -0.27245435 -0.6129808
-0.10225332 -0.09022212 0.24400303 0.057541434 -0.11541171 -0.20807092 -0.071573645 -0.10786433
-0.026816627 -0.10337064 -0.084028326 -0.11831221 0.08521395 -0.09292533 -0.14412445 -0.3057381
-0.2919831 -0.36146468 -0.20459633 -0.3129897 2.172275 -0.5075089 -0.14842214 -0.43762457
0.12528546 -0.18694109 -0.40595433 -0.1047013 0.058925487 0.0013945203 -0.41063547 -0.07962322
0.43910617 -0.39078867 0.19308145 -0.21934299 -0.2227526 -0.5190221 -0.10534716 -0.16255762
0.0699556 -0.25461093 -0.27282986 0.02492343 -0.20320322 -0.32022375 0.06675564 -0.14598276
0.1919707 -0.08239377 -1.0322478 -0.11463507 -0.09123566 -0.145828 -0.28524968 0.062274937
-0.12170098 -0.36846596 -0.5449596 0.48474345 -0.12593454 -0.21032864 -0.1953103 -0.1253648
-0.22549169 0.10353814 -0.10630946 -0.02458594 -0.118005246 -0.02237061 -0.38432446 0.04582606
-0.23728237 -0.14233258 -0.09420776 -0.14049387 -0.44835904 -0.028598152 -0.09286911 -0.049098413
-0.08367273 0.22081187 -0.6752265 -0.06081835 0.16296723 -0.13890392 -0.32444566 -0.09547053
-0.16191769 0.82304484 -0.33664414 -0.11741547 -0.082937114 -0.049540758 -0.2164659 -0.40849328
-0.08544325 -0.15686879 -0.21969947 0.059692908 -0.061538268 -0.14508583 0.29727536 -0.082969226
0.119211145 -0.13757175 -0.20264633 0.03328337 -0.20905639 -0.04892741 0.1743057 -0.92988795
-0.09034623 -0.07186521 0.07759319 -0.14490676 -0.20525551 -0.06576867 0.05621373 -0.10169424
-0.10940736 0.20735326 0.81909686 -0.17477506 -0.5182241 -0.2378019 -0.17225613 -0.31117615
-0.11570692 0.29625967 -0.18303218 -0.09214548 0.9882087 -0.96846217 -0.17755364 -0.19619545
-0.23841362 -0.09612821 -0.46125168 -0.12370196 -0.16619422 0.35792914 -0.15374103 -0.05436467
-0.14985955 -0.08075589 -0.11181996 0.073248975 -0.22231694 -0.07539268 -0.39641565 0.006603474
-0.19242953 -0.26833206 -0.122003704 0.06945614 -0.05570004 -0.16587517 -0.23280257 1.2219032
-0.28313673 -0.2890799 -0.46439323 -0.08912289 -0.5500134 -0.13389868 -0.24313284 -0.113360584
-0.25978017 -0.26413167 -1.2391472 -0.35284606 -0.08374981 0.08208791 -0.006456387 -0.1256509
-0.06832183 -0.22158168 0.14629364 -0.11106171 -0.083208725 -0.16001174 -0.011430793 -0.099176675
-0.26920816 -0.13028598 -0.11880298 -0.24842352 -0.8217292 -0.13176017 0.110947944 -0.12568425
-0.21303852 -0.15617244 -0.1582613 -0.13022482 -0.1077344 -0.108260155 -0.15026027 -0.29707414
-0.015501264 -0.06319662 -0.10422403 0.07396128 -0.32316545 -0.15755995 -0.2030225 -0.16116376
-0.049074665 -0.08776286 -0.34527025 -0.38849938 0.2684079 0.16513284 -0.16559197 -0.27156284
-0.0905433 -0.15299867 -0.05430143 0.08344956 -0.1241014 0.20600447 0.76010555 -0.23601344

weight f4 [128, 256]
00000000: 93c3 713d 1b73 f1bd 525e 133c 0153 2dbc
00000010: 088a 2abe 6915 b2bd da11 d0bd 5c53 1c3d
00000020: 4bb8 99bd 2e7c debd ceef 84bd 3517 b1bd
00000030: 5411 d8bd 523c a5bd 9c91 3abe ffaf 25be
00000040: 706f 32bd b5fc e2bd 91b7 03be c548 28be
00000050: aba1 4dbd f404 e9bd b945 fdbd bc5e 193d
00000060: 9a5c fabd 1036 bebc a3a7 143d 1112 20bf
00000070: 2313 00be 7752 bebd 60e9 e53c 7ce6 633d
00000080: ed4c b0bd df26 89bd d8d4 52bd 89d9 74bd
00000090: cc98 173d 20bf f9bd 9ff9 7abd 7aff 20be
000000a0: a977 2d3d d554 ac3c 46ca 15be 0b2c 38be
000000b0: f2c8 33be dbc3 f4bd 35e6 78bd 0f69 633e
000000c0: ea6a a63c 5c65 3b3d ea1a 3bbe 18eb 98bd
000000d0: 8999 a5be d01d d9bd d7be febd 79f5 343d
000000e0: 90c1 a0be 9981 d1be 8d08 10bd 42ea c9bd
000000f0: 9d68 cbbd 0176 90be ecd5 a7bd 154a e8be
00000100: cb87 95bd c23b 8c3d 4a76 d1bd bd50 84bd
00000110: 3ae8 563d ac99 37bd 63f5 ffbd 828d 2fbe
00000120: d8ec dfbd 567c 2cbd 1ac5 b83e eebe d73b
00000130: c485 2bbe 9012 adbd 2adc e2bd eebe fbbd
00000140: eece 5cbe b444 f8bd f1dc bbbd de21 25be
00000150: 9187 1cbe b129 2abe bedb 59bd 176a 22bd
00000160: b01c 04bc 78c8 8bbd 4bda 23bd cb68 3e3d
00000170: 1494 a9bd e080 de3c 5aef 16be ca88 323d
00000180: 16d3 62bd 1b3b 8cbd 6e85 55bd c8e5 acbe
00000190: 0744 473c ff16 e0bd acc8 d8bc 6219 a9bd
000001a0: 15d8 203d 881e e4bc 3fac 23be f422 d2bd
000001b0: d33a 2ebd b380 273d 868e 9d3c 3657 acbd
000001c0: fa9b 76bc a990 a3be 9797 bdbd 4ce6 5fbd
000001d0: de87 7a3d 84e7 5f3b 6ac3 403c 9d13 20be
000001e0: ec61 29be 6770 46bc 0858 d83c 904b 0a3d
000001f0: d214 a7bd 0cb1 13be be2d 51ba 98f7 54be
00000200: 64c5 7d3c 3843 9ebd 3fd1 c2bd 8ad7 f23c
00000210: 00a0 73bd efc4 a8bd c5dc 7ebc 23e5 e1bd
00000220: b0f5 0abb 9c3f 52bc 1292 87bd ba5c 97bd
00000230: eb2f 32be 183f 93bd 91c7 1bbe 406f abbe
00000240: 4036 633b 5584 dabd b7e8 67bc 1856 4b3d
00000250: d458 ebbd e091 d0bc 2d92 debb eb71 273d
00000260: 6819 d03c 157a b93c 4777 833c c8f2 8abd
00000270: 94fc 18be b88e 123d 0456 3fbd 8c1c 373d
00000280: f419 8fbd 2c3d 05be bee5 793d 11a9 b0bc
00000290: 58a6 f0be 4eff cfbd a784 aabc 4378 96bd
000002a0: 8f69 93bd 91ad 313d 5645 16be b127 09be
000002b0: 7844 eb3d 9599 6abd b8c8 f7bd ed16 0dbe
000002c0: a026 26be a707 91bc 0e0b 52bd fecc 1abc
000002d0: ba90 933c 9393 c3bc 8b86 f63c 94ad 6cbd
000002e0: 8c93 73bc 8908 2bbe bfaa b3bd a6ce 29be
000002f0: fab1 dc3b 1412 d7bd ffe9 a6bd 6a3a edbe
00000300: 23c2 08be ef1e 8dbd 1f9d 9c3c 860b 0dbe
00000310: 44bb c8bd c6ad 83bc b6ac 1dbd 3a58 0f3c
00000320: ef45 0fbe b96c dc3b 251a 82bd 102f 33bd
00000330: fb64 803c e910 28be cc46 bcbe 770e e2bd
00000340: a1f6 783c ec1c 59bc d910 17bc 4f65 0bbd
00000350: b0ff 27bc a024 3f3c 292f 8fbd c80f 1ebd
00000360: c5be fcbd 2ad7 0abe 586e 09be 9480 0fbe
00000370: b622 27be 2847 18be 1c4f 55bd 39cb 0f3d
00000380: 9cd4 0a3d 8843 59bd 25e7 39be 2f79 20be
00000390: 3277 15be 2008 31bb 5305 1cbe e0e5 723c
000003a0: 93bf f43c 98b0 53be 9fd0 d9bd 8a1c 23be
000003b0: b09d 41be 3834 a5bd 2e09 e7bd 154f 633d
000003c0: f962 c7bd 443d 533d e2c6 1abe 0bd9 ecbc
000003d0: 0f59 783d b0d7 b7bd 90c6 ecbd 4a42 f83c
000003e0: b20e fa3d eff4 11be 8f48 0cbe 5909 efbd
000003f0: 764f df3c d584 aabd c8e4 143d 3d44 75be
0.059024405 -0.11789533 0.008994656 -0.010578872 -0.16654217 -0.0869549 -0.10159655 0.038165435
-0.07505854 -0.10863529 -0.064910516 -0.086470045 -0.1055018 -0.08068146 -0.18219608 -0.16180418
-0.043563306 -0.11083356 -0.12862994 -0.1643401 -0.050203007 -0.11377898 -0.12366814 0.03744386
-0.122246936 -0.023219138 0.036292683 -0.6252757 -0.125073 -0.09293073 0.028065383 0.05563973
-0.086084224 -0.06696867 -0.051472515 -0.05977777 0.037010953 -0.12194657 -0.061273213 -0.15722457
0.042350445 0.021036545 -0.14627942 -0.17985551 -0.17557123 -0.11951419 -0.060766418 0.22208045
0.020314652 0.04575096 -0.18271986 -0.074667156 -0.323437 -0.106013894 -0.124387436 0.044179413
-0.31397676 -0.40919188 -0.035164405 -0.09859134 -0.09932063 -0.2821503 -0.08195099 -0.4536902
-0.07301291 0.068473354 -0.1022764 -0.06460712 0.052467562 -0.044824287 -0.12497976 -0.17143825
-0.10933846 -0.042110763 0.36087877 0.00658404 -0.16750246 -0.08450806 -0.11077149 -0.12292276
-0.21563312 -0.12122479 -0.091730006 -0.161262 -0.1528609 -0.16617467 -0.053188078 -0.039651956
-0.00806348 -0.06825346 -0.040003102 0.046486657 -0.08280197 0.027161062 -0.14739743 0.043587483
-0.05537709 -0.06847211 -0.0521292 -0.3376906 0.012162215 -0.10941886 -0.026462875 -0.082567945
0.039268572 -0.02784659 -0.15983675 -0.10260573 -0.042536568 0.04089422 0.019233 -0.08415072
-0.015051836 -0.31946304 -0.09257429 -0.054662988 0.06116473 0.0034165094 0.01176534 -0.15632482
-0.1654126 -0.01211176 0.026409164 0.03376347 -0.08158268 -0.14423007 -0.00079795334 -0.20797575
0.015488956 -0.07727665 -0.09512567 0.029643793 -0.05947876 -0.08240687 -0.015555565 -0.110300325
-0.002120357 -0.0128325485 -0.066196576 -0.07390733 -0.17401092 -0.071897686 -0.15212847 -0.33483315
0.0034669787 -0.106697716 -0.014154605 0.049642652 -0.11491552 -0.025460184 -0.006792328 0.040880125
0.02540274 0.022641221 0.016048087 -0.06784588 -0.14940101 0.03578064 -0.04671289 0.04470496
-0.06987372 -0.13011616 0.061010115 -0.021564992 -0.4700191 -0.101561174 -0.020815207 -0.07347157
-0.07197868 0.043378416 -0.14674887 -0.13394047 0.11487669 -0.057275373 -0.12098831 -0.13778277
-0.16225672 -0.017703844 -0.051280074 -0.009448288 0.018013347 -0.02387408 0.030093452 -0.057782724
-0.014866721 -0.16702475 -0.087728016 -0.16582736 0.0067350836 -0.10501495 -0.081501 -0.4633363
-0.13355307 -0.06890666 0.01911789 -0.13773927 -0.09801343 -0.016074073 -0.038494788 0.008749062
-0.13991521 0.006726828 -0.06352643 -0.043746054 0.015673151 -0.164127 -0.36772764 -0.11037915
0.01519552 -0.013251524 -0.009220325 -0.034032162 -0.010253832 0.011666447 -0.06991417 -0.03858927
-0.12341074 -0.13558641 -0.13420999 -0.14013892 -0.16321835 -0.14870894 -0.052077398 0.035105918
0.033894166 -0.05304292 -0.18154581 -0.15671228 -0.1459625 -0.00270129 -0.15236406 0.014825314
0.029876506 -0.20672834 -0.106354944 -0.15928856 -0.1890781 -0.080666006 -0.11281048 0.05549534
-0.097356744 0.0515721 -0.1511493 -0.028912088 0.060631808 -0.08976686 -0.1156131 0.030305047
0.12209834 -0.14253591 -0.13699554 -0.11671705 0.02725957 -0.08326117 0.036350995 -0.23951812

bias f4 [128]
00000000: 3b09 04bf 50c3 43bf a31b 86bf 116e a1bf
00000010: ba8f cbbf b02b 1abf ac08 9ebf 8772 c4bf
00000020: 8c6a 02c0 a8e9 4bbf 492f 53bf 90aa d8bf
00000030: c250 90bf 1f0e 91bf f3a1 8f40 7b8b 94bf
00000040: 8a54 68bf b338 75bf 2830 84bf da5e b6bf
00000050: 5469 0040 6ab9 5bbf bf21 e6be 97c1 c8bf
00000060: 9641 26bf 6849 8ebf 7384 a5be 9ea0 63bf
00000070: 065f 4abf cc4b 00c0 38fb b0be 1ca9 54bf
00000080: 9aa5 79bf 7b33 473f 4e7c e2be c962 27bf
00000090: 012c 84bf 3108 cabe 871f 6ebf 842f 90bf
000000a0: e3c6 0dc0 2077 46bf c7c4 c0bf c53f 30bf
000000b0: 62cd e4bf cd4a 5abf 034b 1ebd 691d c6bf
000000c0: 793e a23f 71a8 663c af99 31bf acd0 0abf
000000d0: c501 55bf 7312 d23d 5b88 f0bf 76bc 743f
000000e0: 4469 78bf de7d 09bf 1cab 583e 4de7 6fbf
000000f0: 7067 71bf d283 72bf dd7b df40 eafe ecbe
00000100: 5cdc e6bf b307 34be ef7c 96bf 3cb8 80bf
00000110: 17d5 65bf c21a 07bf e8dd 37bf ea5c 94bf
00000120: 1b27 c9bf 894d 26bf 2cb5 53bf 6e34 94bf
00000130: e303 93bf 3d66 fdbe 2a8a 3dbf ba07 31bf
00000140: 2001 6cbf 1d31 0b40 e3c6 46bf 42d9 53bf
00000150: 21da d23d 2c7d 0dbf b708 ccbf 6a9a 91bf
00000160: 055b 3c3f 952f 36bf 7b6e e9be 9367 7fbf
00000170: 5131 dbbf 97d1 4cbf 82fb e0bf bbde 3abe
00000180: e120 00bf 5c70 a2bf dd99 b5bf 51ed e53e
00000190: d2ed adbf e808 62bf c6a3 f7bf ce99 51bf
000001a0: a849 6fbf 337c 52bf fc9a 30bf aa92 f3be
000001b0: 6fea 9abf e912 3bbf 9fa1 0ac0 d848 51bf
000001c0: 776e f7be cd3f ccbf c733 98bf 4745 58bf
000001d0: ca9e c7be dfb3 5cc0 d1f8 8ebf 647d d8bf
000001e0: 3cbc a2bd e789 89bf ae91 2940 e657 65bf
000001f0: 7f12 bebf 83d5 4c3f 40e5 b6bf 7871 55bf
-0.51576585 -0.764699 -1.0477184 -1.2611715 -1.5903237 -0.6022291 -1.2346396 -1.5347451
-2.037753 -0.79653406 -0.82494026 -1.6927052 -1.1274645 -1.1332434 4.488519 -1.1605066
-0.90753996 -0.9578964 -1.0327196 -1.4247696 2.0064287 -0.85829794 -0.4494762 -1.5684079
-0.64943826 -1.1116152 -0.32327613 -0.8891696 -0.79051244 -2.0046263 -0.34566665 -0.8307054
-0.9751831 0.7781293 -0.44235462 -0.6538511 -1.0325929 -0.39459375 -0.93016857 -1.1264501
-2.215264 -0.7752552 -1.5060052 -0.68847305 -1.7875178 -0.85270387 -0.038645755 -1.5477725
1.2675315 0.0140782455 -0.6937513 -0.5422466 -0.83205825 0.10257425 -1.8791612 0.9560007
-0.9703562 -0.53707683 0.21159023 -0.9371231 -0.9429846 -0.9473239 6.98387 -0.46288234
-1.8035998 -0.17581062 -1.1756877 -1.0056224 -0.89778274 -0.52775204 -0.7182298 -1.1590855
-1.5715059 -0.6496206 -0.8269832 -1.15785 -1.1485561 -0.49492064 -0.74038947 -0.69152415
-0.92189217 2.1748726 -0.7764723 -0.82753384 0.10295511 -0.5526912 -1.594016 -1.1375248
0.73576385 -0.71166354 -0.45592102 -0.99767417 -1.7124425 -0.8000731 -1.7576754 -0.18249027
-0.5005017 -1.2690539 -1.418758 0.4490762 -1.3588202 -0.8829484 -1.9346855 -0.8187531
-0.93471766 -0.8222076 -0.6898649 -0.47572833 -1.2102793 -0.7307573 -2.1661146 -0.81751776
-0.48326465 -1.595697 -1.1890801 -0.8448071 -0.38988334 -3.4484785 -1.1169683 -1.6913266
-0.07946059 -1.074521 2.6495166 -0.8958725 -1.4849395 0.80013293 -1.4288712 -0.83376265

weight f4 [1, 128]
00000000: 6615 68be 7d08 06be ba59 9ebc 257f 64be
00000010: 78a5 f13c 3af9 80bd 1194 ac3c 8a82 0cbe
00000020: 1a9c 2e3e 55f4 e93c ee89 9e3c 0095 ed3b
00000030: 68c1 d6bd bb40 b23d 72ef d3be c736 4ebd
00000040: 0205 503d 30fe 13bd 486a bcbd 7ed2 4b3d
00000050: bb01 b6be 9fa7 9d3c b487 8c3e 1aeb 18be
00000060: 2657 033e 7872 db3c 3114 d5bd 4f29 24be
00000070: 3854 53be 8195 213e 8efd 643d 09e0 193d
00000080: 18a2 c1bd 7d8f 5ebe 11c6 d13e ff82 953d
00000090: b349 c13e b45e 7b3c e91a a93e b849 0ebe
000000a0: 385a ae3e 2c43 da3c 515e 803e 7618 923d
000000b0: 4276 1ebd bec1 cf3c 98d2 c93c d91b 8cbc
000000c0: 74b2 febd 57d8 95bd a6ca 923e 1258 10bc
000000d0: 905d a83d 2229 d8bd e152 f5bd 8f49 80be
000000e0: f36f d53c 8d1b ac3e 66f7 a5be cfdb 223e
000000f0: 3fec 87bd 72af 40be fd26 48be 8572 a1bc
00000100: c240 babc d385 72bc 0fac 843d 2d53 1cbd
00000110: 243e 23bd b5b0 863c 0dde 2fbd d976 f4bb
00000120: afcc 84bc b569 843d f982 0d3e 8317 00be
00000130: 1e70 313d cec9 703d 94c2 98be 05ad b83d
00000140: e0e3 b53d aafa 88be f2d9 d0bd a92b 02bc
00000150: b7ee 47bd 1649 013e 99b0 733c e98b 3dbe
00000160: 5c0e 75be aa36 913c c873 28be 6739 8a3d
00000170: 00a7 043f 1ad2 f93c 4707 673c 0d06 23be
00000180: ab34 cd3e e960 24bd 6fc8 f83c c37d 783e
00000190: 6475 793c 5925 42bd 955c b0bc 8a29 a83d
000001a0: 22ec 9d3c 91a6 873e fdc1 f63d 21e3 00bd
000001b0: a9b1 083e 15e6 963d 3616 c83c d62b 01bd
000001c0: 2f98 cbbd 7f0d 0d3e 5745 6b3b 01ac 2dbe
000001d0: 6ea6 38be b312 1e3e e63a 08bd 3ecd 1f3e
000001e0: d59e 43be 67da 803d 50bd 84be edec f4bd
000001f0: cb62 05bc 9e22 dabd b73b 183e 382d debd
-0.22664413 -0.13089176 -0.019329894 -0.22314127 0.029497847 -0.06297536 0.021066697 -0.13721672
0.17051736 0.02855889 0.01935288 0.007250428 -0.10486108 0.087037526 -0.4139362 -0.05034521
0.050786026 -0.036131084 -0.09199959 0.049761288 -0.35548195 0.019244967 0.27447283 -0.14933434
0.12826213 0.026787981 -0.10404242 -0.16031383 -0.20637596 0.15779687 0.05590587 0.037567172
-0.09454745 -0.21734424 0.40971425 0.07300376 0.3775154 0.015342403 0.33028343 -0.13895309
0.34053206 0.026643358 0.25071958 0.07133572 -0.038687 0.025360938 0.024636552 -0.017103123
-0.12436381 -0.07316654 0.28670233 -0.00881006 0.08220971 -0.105547205 -0.119786985 -0.2505612
0.026054358 0.3361477 -0.32415313 0.15904163 -0.06636857 -0.18816927 -0.19546123 -0.019707927
-0.022735957 -0.014802414 0.0647813 -0.03816526 -0.039854184 0.016441682 -0.042936374 -0.007460457
-0.016210882 0.064654745 0.13819493 -0.12508969 0.043319814 0.058786206 -0.2983595 0.09017376
0.08881354 -0.26753742 -0.1019782 -0.00794498 -0.04881164 0.12625536 0.014873647 -0.18510403
-0.23931259 0.017726261 -0.16450417 0.0674923 0.5181732 0.030495692 0.014100856 -0.15920277
0.40079245 -0.040131483 0.030369012 0.24266724 0.015225742 -0.0473989 -0.021528522 0.08211048
0.019277636 0.26494268 0.12048719 -0.031466607 0.13349022 0.073681034 0.024424654 -0.031535946
-0.09941136 0.1377468 0.0035899484 -0.16960146 -0.18032238 0.1543682 -0.033259295 0.15605637
-0.19103558 0.06291657 -0.25925684 -0.119592525 -0.00814123 -0.10651134 0.1486653 -0.108484685
