Model/trained_model.pth (torch, 685384 bytes, 7 tensors)

weight f4 [512, 10]
0	0x3e17783d	0.14791961
1	0xbf23d981	-0.6400376
2	0x3e16d3a9	0.1472918
3	0x3e6dea8d	0.23234005
4	0x3dc6a05f	0.09698557
5	0x3e82a3fd	0.25515738
6	0x3de77997	0.11302488
7	0x3ec5d866	0.3864166
8	0x3e7d2f90	0.24725175
9	0xbee69637	-0.4503648
10	0xbdcb7858	-0.09935063
11	0x3f28c005	0.65918
12	0x3dc89cd8	0.097955406
13	0xbe2d12fb	-0.16901772
14	0x3d5b7ef1	0.053587858
15	0x3ef255b4	0.4733101
16	0xbe665862	-0.22494653
17	0xbe4f36c0	-0.20235729
18	0xbdfc5052	-0.123200074
19	0xbfad6d42	-1.3548968
20	0x3e1d6ac8	0.15372765
21	0xbee35ab6	-0.44405144
22	0xbdd521f4	-0.10406867
23	0xbce2f245	-0.027703414
24	0x3dff25d4	0.12458387
25	0xbe255638	-0.16146171
26	0xbf02fe76	-0.51169527
27	0x3ea98045	0.33105674
28	0x3eb95f16	0.36205357
29	0xbe758bbe	-0.23979089
30	0xbe545431	-0.20735241
31	0x3f353e9a	0.7079865
32	0x3e8f9a45	0.28047386
33	0xbecc84cf	-0.39945075
34	0xbe8ed8ed	-0.27899876
35	0x3e0b5bcc	0.13609236
36	0xbf0b41ba	-0.54397166
37	0x3e8b522c	0.2721113
38	0xbe0bc293	-0.13648443
39	0xbf37ed23	-0.71846217
40	0x3f18777d	0.59557325
41	0x3e8ed783	0.27898797
42	0x3d692e53	0.056928944
43	0xbe0a0997	-0.1348022
44	0x3dfaf2aa	0.12253316
45	0xbf15df12	-0.58543503
46	0xbea597de	-0.32342428
47	0x3f7c0813	0.9844982
48	0x3f31fc91	0.6952601
49	0xc03daa3f	-2.963516
50	0xbcf3d254	-0.029763378
51	0xbf813ca9	-1.0096637
52	0x3e9013c2	0.28140074
53	0xbcfb0e40	-0.030646443
54	0x3e04e716	0.12978777
55	0xbdaa7536	-0.083231375
56	0xbd47cf96	-0.048781954
57	0x3ee0ffe7	0.43945238
58	0x3c3f43ff	0.011673926
59	0xbe64d98c	-0.22348613
60	0x3d944e72	0.07241525
61	0x3d9b0ad5	0.075704254
62	0xbd103a3a	-0.03521178
63	0xbe205c68	-0.1566025
64	0xbe65ce61	-0.22442009
65	0x3b6e6291	0.0036374668
66	0xbe3afb97	-0.18260036
67	0x3dec874c	0.11549243
68	0x3dd197d7	0.10234039
69	0x3e018363	0.12647776
70	0x3e0a4c88	0.13505757
71	0xbf4251b2	-0.7590591
72	0xbe96b6b2	-0.2943626
73	0xbe9f29c0	-0.3108654
74	0xbdd11c2e	-0.10210453
75	0xbefd5f31	-0.49486688
76	0x3f08acbe	0.53388584
77	0x3f099287	0.5373921
78	0x3d9c7127	0.076387696
79	0xbfa51b67	-1.2898988
80	0xb9a1050a	-0.00030712067
81	0x3f4524df	0.77009386
82	0x3c1aa2e1	0.009438247
83	0x3ab688cd	0.0013926268
84	0xbb9e67ca	-0.00483415
85	0x3e0e30c1	0.13885786
86	0x3a24fc4d	0.0006293699
87	0x3bd54162	0.0065080384
88	0x3e19db13	0.15024976
89	0xbfb33263	-1.3999752
90	0xbe5930a2	-0.21209958
91	0x3ddc22d7	0.10748833
92	0xba924257	-0.0011158687
93	0xbd2c5acd	-0.042078782
94	0xbf022d52	-0.50850403
95	0xbdbc69c7	-0.09199863
96	0x3c8164e2	0.015795175
97	0xbb2c1137	-0.0026255378
98	0xbd30a596	-0.043126665
99	0xbf42c4d7	-0.76081604
100	0xbd300103	-0.042969715
101	0x3c48494a	0.012224505
102	0x3d789fef	0.0606994
103	0xbc90ee90	-0.01769188
104	0x3bee0619	0.0072639105
105	0xbe05dea2	-0.13073209
106	0xbd8602ab	-0.065434776
107	0xbdbbcb79	-0.09169669
108	0x38b92ba0	8.829613e-05
109	0xbcb619cb	-0.022229096
110	0xbf71a45f	-0.94391435
111	0xc036ccf1	-2.8562586
112	0xbca0af86	-0.019614946
113	0xbb96fc71	-0.00460773
114	0x3bb51db6	0.0055272235
115	0xbd949960	-0.072558165
116	0x3c6440e3	0.013931486
117	0x3df107d5	0.11769072
118	0xbf2e9aad	-0.68204767
119	0x3f7a1cef	0.977004
120	0xbd3e3f39	-0.046447013
121	0xbec33ea1	-0.3813372
122	0x3c5ce8f0	0.013483271
123	0x3d525a70	0.05135578
124	0xbdb81856	-0.08989017
125	0xbeb7205e	-0.35766882
126	0xbefce88c	-0.4939617
127	0xbe05f248	-0.13080704
128	0x3d3005eb	0.042974394
129	0x3e8f6471	0.28006318
130	0x3db5f97d	0.08885477
131	0x3f24e4bf	0.6441154
132	0x3d736472	0.059421964
133	0xbe82ef1c	-0.2557305
134	0xbd7847e9	-0.060615454
135	0xbd8a6fba	-0.067595914
136	0xbe65d423	-0.22444205
137	0x3ea38dd5	0.31944147
138	0x3e24fb00	0.16111374
139	0xbf172154	-0.5903523
140	0xbb905081	-0.004404128
141	0xbd875e23	-0.06609752
142	0xbc5ee547	-0.013604469
143	0x3cdc0420	0.026857436
144	0xbd3824fe	-0.044957153
145	0x3b9367cd	0.004498458
146	0xbda82293	-0.082097195
147	0xbd9fd984	-0.0780516
148	0xbbcb11d9	-0.006197196
149	0x3d88307a	0.06649871
150	0xbe341bd0	-0.17588735
151	0xbf249dbb	-0.6430318
152	0xbe2baf13	-0.16766004
153	0xbe5d7e75	-0.21630271
154	0xbd36fd8f	-0.044675406
155	0xbd5032f6	-0.05082985
156	0x3e41d0b3	0.18927269
157	0x3e46a6e4	0.19399601
158	0xbe14e802	-0.14541629
159	0xbc2bd7ad	-0.010488433
160	0xbc68af58	-0.014201961
161	0xbd2d75be	-0.042348616
162	0x3a26ce29	0.0006363118
163	0x3b85da5c	0.0040848684
164	0xbd511d4f	-0.05105334
165	0xbbffdcca	-0.0078083025
166	0xbc83c25f	-0.016083894
167	0xbdf14f42	-0.11782695
168	0xbd6f9742	-0.05849386
169	0x3b82b238	0.0039885305
170	0xbe31635c	-0.17323059
171	0xbed5624e	-0.41676563
172	0xbd9727d7	-0.07380646
173	0xbc8f9c3d	-0.017530555
174	0xbd398c55	-0.045299847
175	0xbec54bd3	-0.38534412
176	0xbe84ce3d	-0.25938597
177	0xbd643874	-0.0557179
178	0xbe8ceca4	-0.27524292
179	0x3e78ff36	0.24316105
180	0xbcf913c4	-0.030404933
181	0xbed8a3db	-0.42312512
182	0xbf229b14	-0.6351788
183	0x3e815131	0.25257257
184	0xbb70974f	-0.003671128
185	0x3edd5731	0.43230584
186	0xbc2d8f6e	-0.010593278
187	0x3f533cfb	0.82514924
188	0xbe740f56	-0.23833975
189	0xbf21754c	-0.63069606
190	0xbeb5cb7a	-0.35506803
191	0xbe00464d	-0.12526818
192	0xbde1c76b	-0.11024364
193	0x3d309d5d	0.043118823
194	0xbd8abc11	-0.06774152
195	0xbe444622	-0.19167379
196	0xbe1e2de4	-0.15447193
197	0xbcc1c493	-0.023653304
198	0xbe87ec24	-0.26547348
199	0xbda2b322	-0.07944323
200	0x3f03a181	0.5141831
201	0xbf42d172	-0.7610084
202	0x3d722036	0.05911275
203	0xbe95781d	-0.29193202
204	0xbe1b42ba	-0.15162173
205	0x3d30501f	0.04304516
206	0xbd52909e	-0.05140745
207	0x3f053836	0.52038896
208	0x3ef00de8	0.4688561
209	0xbf6fd545	-0.936848
210	0xbd179e89	-0.037016425
211	0x3ed4b900	0.41547394
212	0xbe1fb8d1	-0.15597846
213	0x3e849d7d	0.25901404
214	0xbe82f376	-0.2557637
215	0x3f126925	0.5719169
216	0xbe9394c5	-0.2882444
217	0x3ea2e1dc	0.31812942
218	0xbda5e8a5	-0.08101014
219	0xbf5b4c0b	-0.8566291
220	0xbf0e69ac	-0.5562999
221	0x3e97a4c5	0.29617897
222	0xbdafe3dc	-0.085883826
223	0x3da3020f	0.07959377
224	0xbe07e0f3	-0.13269405
225	0xbe953c96	-0.29147786
226	0xbe0ed79a	-0.13949433
227	0xbdb6f93e	-0.08934258
228	0xbecc8bb9	-0.3995035
229	0xbecc79a0	-0.39936543
230	0xbe15fa77	-0.14646326
231	0xbe83aea4	-0.25719178
232	0xbe70ffde	-0.23535106
233	0xbd9c6729	-0.07636864
234	0x3d87fb50	0.06639731
235	0x3da117a2	0.07865836
236	0x3da0fc8c	0.078606695
237	0xbc73d52f	-0.01488237
238	0xbdeb4c87	-0.11489206
239	0xbd2eb070	-0.042648733
240	0x3dc1a006	0.0945435
241	0xbfbf543c	-1.4947581
242	0xbea93c2e	-0.33053726
243	0xbdf6eb03	-0.12056544
244	0x3d99954d	0.0749918
245	0x3e9f4c3b	0.31112847
246	0xbe67a12a	-0.22620073
247	0x3e227256	0.15863928
248	0x3dde9950	0.10869086
249	0x3fb3ed62	1.4056818
250	0x3f4e01cf	0.8047151
251	0x3dbe22d2	0.09283985
252	0xbc885b79	-0.01664518
253	0xbe49938e	-0.19685194
254	0xbeb54323	-0.35402784
255	0xbf3c3998	-0.7352538

bias f4 [512]
0	0xc01f8b0e	-2.4928622
1	0xbfa15adc	-1.2605853
2	0xbfde7bcf	-1.7381533
3	0xc00156e3	-2.0209281
4	0xc015ab9d	-2.3385994
5	0xc00639cd	-2.0972779
6	0xbf20e4db	-0.62849206
7	0xc023b836	-2.5581183
8	0xbf3cdb10	-0.7377176
9	0xbfa79de7	-1.3095063
10	0xbeaef7f0	-0.34173536
11	0xbf1c1e05	-0.60983306
12	0xbfb7ce54	-1.4359841
13	0xc0136d52	-2.3035474
14	0xbea2a9cc	-0.3177017
15	0xc0101331	-2.2511714
16	0xbe8b9479	-0.27261713
17	0xbfbde520	-1.4835548
18	0xc036dc1b	-2.8571842
19	0xbf51adf0	-0.8190603
20	0xc0249487	-2.5715654
21	0xc0201125	-2.5010464
22	0xbf7a6f29	-0.97825867
23	0xbfc47137	-1.534705
24	0xbff07299	-1.8784972
25	0xc016294f	-2.3462713
26	0xbfa651ce	-1.2993715
27	0xbfd32bb9	-1.6497718
28	0xc013fddb	-2.312369
29	0xbfb4fd15	-1.4139735
30	0xbfbeed28	-1.4916124
31	0xc0354e16	-2.832891
32	0xbf12b656	-0.5730947
33	0xbfbc2695	-1.4699274
34	0xbe8b925c	-0.272601
35	0xbfaeb6a3	-1.3649486
36	0xbe9f553a	-0.3111971
37	0xbed13025	-0.40857044
38	0xbe4a99b8	-0.19785202
39	0xbea7a280	-0.32741165
40	0xbec7de9e	-0.3903703
41	0xbf8ac716	-1.0842006
42	0xbf8a623c	-1.0811229
43	0xc00cf877	-2.202665
44	0xc03112e0	-2.766777
45	0xc009a1ea	-2.1505075
46	0xbfc70893	-1.5549492
47	0xc041ce48	-3.0282154
48	0xc0256108	-2.5840473
49	0xbffff008	-1.9995127
50	0xbf5d654c	-0.8648269
51	0x3f6bab0c	0.9205787
52	0xbea1a18c	-0.31568563
53	0xbfcfe4fb	-1.6241754
54	0xbec8546e	-0.39126915
55	0xbf6e1fb1	-0.9301711
56	0xc04faaed	-3.2448075
57	0xc037e830	-2.8735466
58	0xc0219f70	-2.5253563
59	0xc01ae3e6	-2.4201598
60	0xc000a7a8	-2.010233
61	0xbfb2286c	-1.3918586
62	0xbf175751	-0.5911761
63	0xbf903cfa	-1.1268609
64	0xbf046e8d	-0.5173119
65	0xbfe5be51	-1.7948705
66	0xc017a417	-2.3693902
67	0xbf5d0fae	-0.8635205
68	0xbf7082b5	-0.93949443
69	0xbe594c11	-0.21220423
70	0xc0128cb4	-2.2898378
71	0xbed5b245	-0.4173757
72	0xbea18a97	-0.31551048
73	0xbfdf1ab4	-1.7430024
74	0xbfdaca07	-1.7092904
75	0xc01d6f5d	-2.459922
76	0xbfe0b440	-1.7555008
77	0xbe820fb3	-0.25402603
78	0xbff70b35	-1.9300295
79	0xc01bead0	-2.4362068
80	0xbfd34efc	-1.6508479
81	0xc03903ca	-2.8908563
82	0xbfc6a9ef	-1.552061
83	0xbf9f04c3	-1.2423328
84	0xbfa5e397	-1.296008
85	0xbfce80c7	-1.613305
86	0xbf2bbe56	-0.67087305
87	0xbf148b0a	-0.58024657
88	0xc0290972	-2.6412015
89	0xbfbc79ba	-1.4724648
90	0xbf13e447	-0.577702
91	0xc00d1ed2	-2.2050061
92	0xc03fa6e9	-2.9945624
93	0xbfe30427	-1.7735642
94	0xbff34492	-1.9005301
95	0xc015b8bb	-2.3394
96	0xbf4359aa	-0.7630869
97	0xc0194bf7	-2.3952615
98	0xc012c7ba	-2.2934403
99	0xbffd1499	-1.9771911
100	0xbf399b81	-0.72502905
101	0xc02f255b	-2.736655
102	0xbfab1b7e	-1.3367765
103	0xc0061649	-2.0951102
104	0xc00c75ad	-2.1946824
105	0xc023d841	-2.560074
106	0xc0251ab6	-2.5797553
107	0xbe7f9077	-0.24957453
108	0xc012a6a1	-2.2914202
109	0xbe5cd8f4	-0.21567136
110	0xc03642d3	-2.8478286
111	0xc0084f8a	-2.1298547
112	0xbf853434	-1.0406556
113	0xbe93b92d	-0.28852215
114	0xc0264dfb	-2.5985096
115	0xc020d727	-2.5131319
116	0xbf408911	-0.75209147
117	0xbf054e40	-0.52072525
118	0xbfd98260	-1.6992912
119	0xbff6eb19	-1.9290496
120	0xbfd2ccd5	-1.646876
121	0xc053d5d6	-3.3099265
122	0xc0081031	-2.1259882
123	0xbf69e3ff	-0.9136352
124	0xbfd35471	-1.6510144
125	0xbf49eeda	-0.78880084
126	0xbfb23089	-1.3921062
127	0xc024fef6	-2.5780616
128	0xbff58793	-1.9181999
129	0xbfd76e3e	-1.6830518
130	0xbf5c0437	-0.8594393
131	0xbf711feb	-0.9418933
132	0xbec6f23c	-0.38856685
133	0xbf9f7dba	-1.2460244
134	0xbe066a87	-0.13126574
135	0xc00e21b1	-2.2208064
136	0xbfb7062e	-1.4298761
137	0xc02294a0	-2.5403214
138	0xc017761f	-2.3665845
139	0xbfc1f23a	-1.5152047
140	0xc016f2c8	-2.3585682
141	0xbf94208f	-1.1572436
142	0xbf93e609	-1.1554576
143	0xbf185218	-0.59500265
144	0xbf8ba6b6	-1.0910251
145	0xbf6f97fb	-0.9359128
146	0xbe835b86	-0.25655764
147	0xbfa87780	-1.3161469
148	0xbfcb2de6	-1.5873382
149	0xbfacc349	-1.3497096
150	0xc04d1ab3	-3.2047546
151	0xbff007f1	-1.8752424
152	0xbf7a8e5c	-0.97873473
153	0xbffb5a1b	-1.9636873
154	0xc0185275	-2.3800328
155	0xc025f317	-2.592962
156	0xbdc90458	-0.09815282
157	0xbfde3cdf	-1.7362326
158	0xbf14216f	-0.57863516
159	0xc03488df	-2.820854
160	0xc02ce72b	-2.7016094
161	0xc00b70b1	-2.1787531
162	0xbfbc9685	-1.4733435
163	0xc008b29a	-2.135901
164	0x3deffb45	0.11717848
165	0xbfcab8d4	-1.5837655
166	0xc00bda83	-2.185212
167	0xbffcb10a	-1.9741528
168	0xbe9ec4d9	-0.31009558
169	0xbfcc4b27	-1.5960435
170	0xbe4f775f	-0.2026038
171	0xc023100f	-2.5478551
172	0xbfbfba51	-1.4978734
173	0xbf9df554	-1.2340493
174	0xbeafab2e	-0.34310287
175	0xc02beb6d	-2.6862442
176	0xc02a4494	-2.6604357
177	0xbfcd9c09	-1.6063243
178	0xc01db661	-2.4642565
179	0xbeb83fb7	-0.3598611
180	0xbff46e5c	-1.9096179
181	0xbfbccf00	-1.4750671
182	0xbf36c862	-0.7139951
183	0x3eda497e	0.42634195
184	0xbf179611	-0.5921336
185	0xbf9fc6a6	-1.2482498
186	0xbff7bcbb	-1.9354471
187	0xc01c1378	-2.4386883
188	0xc0196ad8	-2.3971462
189	0xbfbcc0d7	-1.474635
190	0xbfe21fcd	-1.7665955
191	0xc02af81f	-2.671394
192	0xc0128ffe	-2.2900386
193	0xc0360ffb	-2.8447254
194	0xbfc0a9e4	-1.5051847
195	0xbf95a599	-1.1691161
196	0xc0402af7	-3.0026224
197	0xc002644b	-2.0373714
198	0xc02a62bf	-2.662277
199	0xc03f3920	-2.9878616
200	0xbfc5b573	-1.5445999
201	0xbfe9276e	-1.8215158
202	0xbfdbc359	-1.716899
203	0xbf4fa9be	-0.8111838
204	0xbfb8e028	-1.4443407
205	0xbf7c2571	-0.9849463
206	0xbf99ea1c	-1.202457
207	0xc006ea86	-2.1080642
208	0xbf0f585a	-0.5599419
209	0xc02621e1	-2.5958178
210	0xbfcf4bb1	-1.6194974
211	0xbe9e755c	-0.30948913
212	0xc032fcde	-2.7966838
213	0xbffdc755	-1.9826456
214	0xc03660f6	-2.849668
215	0xc03310b1	-2.7978938
216	0xbfa4b454	-1.2867532
217	0xbee51b5c	-0.44747436
218	0xbf49497a	-0.7862774
219	0xbeadf3fb	-0.33975205
220	0xc028ae8a	-2.635653
221	0xbedad72a	-0.42742282
222	0xc0253e91	-2.5819438
223	0xbfbdf384	-1.483994
224	0xc021bf80	-2.5273132
225	0xbf84dbcb	-1.0379575
226	0xbf19f58e	-0.6014031
227	0xbeefa483	-0.468052
228	0xc038965e	-2.8841777
229	0x3f8c271a	1.0949433
230	0xbdf592c4	-0.11990884
231	0xc032e7f2	-2.7954068
232	0xc0157b89	-2.335665
233	0xc025443b	-2.5822895
234	0xc05cb35b	-3.448447
235	0xbec7c31a	-0.39016038
236	0xbfe69398	-1.8013792
237	0xbfcdfce7	-1.6092805
238	0xbf5c99f9	-0.86172444
239	0xc01f4424	-2.488534
240	0xc00893d3	-2.1340225
241	0xc041f711	-3.0307047
242	0xc0490a32	-3.1412473
243	0xbf8b6fcb	-1.0893492
244	0xbefe8b17	-0.49715492
245	0xbf5b6d98	-0.857141
246	0xc037d497	-2.8723505
247	0xbef9733e	-0.48720735
248	0xc0290de3	-2.6414726
249	0xbfb11d04	-1.383698
250	0xbeaceb62	-0.33773333
251	0xbf6fabbc	-0.9362142
252	0xc0488d7d	-3.1336358
253	0xc0185975	-2.38046
254	0x3e297d24	0.16551644
255	0xc0098656	-2.1488242

weight f4 [256, 512]
0	0x3d6576eb	0.056021612
1	0xbe8f8bab	-0.28036246
2	0xbe3a8ead	-0.18218489
3	0xbdac1f80	-0.08404446
4	0xbd2181d7	-0.039430466
5	0xbc519957	-0.012792907
6	0xbb4d7705	-0.0031351459
7	0xbe8240ac	-0.25439966
8	0xbe00a8fc	-0.12564462
9	0xbe660208	-0.22461712
10	0x3c285a66	0.010275459
11	0x3d76c924	0.060250416
12	0xbe5c35c8	-0.21504891
13	0xbda5b69f	-0.08091473
14	0xbd65c425	-0.05609526
15	0xbd5c2f8f	-0.053756293
16	0xbdd311ad	-0.10306106
17	0xbe3cf36b	-0.18452232
18	0xbd91967c	-0.07108781
19	0x3c17a71e	0.009256152
20	0x3c12d617	0.008962176
21	0xbe6b2923	-0.22964911
22	0x3de9889c	0.11403009
23	0xbd2602a1	-0.04052985
24	0xbd527ec9	-0.051390443
25	0xbe8401ca	-0.25782615
26	0xbd6d3246	-0.057909273
27	0xbe4bc849	-0.19900621
28	0xbe458be1	-0.19291641
29	0xbda67e3e	-0.081295475
30	0xbe3ea753	-0.18618517
31	0xbe422e3e	-0.18962952
32	0xbda644f0	-0.081186175
33	0x3c8cfbac	0.01720985
34	0xbd3dfc65	-0.04638328
35	0xbe466ba5	-0.19377
36	0xbc828283	-0.015931373
37	0xbcedbab2	-0.029019687
38	0x3d0c3f0a	0.034239806
39	0xbdc5fe16	-0.09667604
40	0x3c4aa1d4	0.012367684
41	0xbd712570	-0.058873594
42	0xbd8b0a60	-0.06789088
43	0x3cb8c2b4	0.02255378
44	0xbcadc655	-0.021212736
45	0xbe8d177d	-0.27556983
46	0xbd9a8f4e	-0.075468644
47	0x3d6214c6	0.055195592
48	0xbe97b2f4	-0.29628718
49	0xbce18662	-0.027529899
50	0x3e677c66	0.22606048
51	0xbe3c8a70	-0.18412185
52	0xbda1753e	-0.0788369
53	0xbdd652e6	-0.1046503
54	0xbd79e8a9	-0.061012898
55	0xbe84e8a8	-0.25958753
56	0xbe66c04b	-0.22534291
57	0xbd364821	-0.04450238
58	0x3dc4c2a4	0.09607437
59	0xbdc694a0	-0.09696317
60	0xbda16b8d	-0.07881842
61	0xbe28dc5f	-0.16490315
62	0xbe018dee	-0.12651798
63	0xbe846c0d	-0.25863686
64	0xbdef2153	-0.11676278
65	0xbe79a750	-0.24380231
66	0xbe98daf2	-0.29854542
67	0x3d83d44a	0.06436975
68	0xbe7eda40	-0.24887943
69	0x3d46fbaa	0.04857985
70	0xbe234b1e	-0.15946624
71	0x3d90a54b	0.07062777
72	0xbd89bdc2	-0.067256466
73	0xbe249793	-0.16073446
74	0x3dc50658	0.096203506
75	0xbe57406c	-0.21020669
76	0xbb440eee	-0.0029916125
77	0xbdf5349e	-0.119729266
78	0xbc930367	-0.017945958
79	0xbe40a154	-0.18811542
80	0x3e1282a4	0.14307648
81	0xbe8dfc16	-0.2773139
82	0xbd68f987	-0.056878593
83	0xbdd6b54a	-0.10483797
84	0x3cddec18	0.027090117
85	0xbeac0a4f	-0.33601615
86	0x3c00ab5c	0.007853355
87	0xbe3b225b	-0.18274824
88	0xbb93df91	-0.004512735
89	0xbe000411	-0.12501551
90	0xbe7352b5	-0.23762019
91	0xbea4acce	-0.3216309
92	0xbe71ca1f	-0.2361226
93	0x3ddceac2	0.10786964
94	0x3e319954	0.17343646
95	0xbe9ebf56	-0.31005353
96	0xbe64614a	-0.22302738
97	0xbd91b53a	-0.07114644
98	0xbd882c3e	-0.066490635
99	0xbd7f32b9	-0.062304232
100	0xbd636190	-0.055512965
101	0xbd9f7d83	-0.07787611
102	0x3c98477b	0.018588772
103	0xbd62b24a	-0.05534581
104	0xbd2b1baf	-0.041774448
105	0xbd26c721	-0.040717248
106	0x3d7acf2c	0.06123273
107	0xbe06bb43	-0.13157372
108	0xbe5ba96b	-0.21451347
109	0xbd433ec2	-0.047667272
110	0x3d95003a	0.07275434
111	0xbe2a1223	-0.16608481
112	0xbdc782a9	-0.09741718
113	0xbd0c158a	-0.03420023
114	0xbe4bd02b	-0.19903629
115	0xbe5757ae	-0.21029541
116	0xbdcadb80	-0.099051476
117	0x3a85bbfd	0.001020312
118	0xbdaf6dab	-0.085658394
119	0xbe66e7b1	-0.22549321
120	0xbd847fe7	-0.06469708
121	0xbc4e1531	-0.012578295
122	0x3e3bfe09	0.18358625
123	0xbe034342	-0.12818626
124	0xbe487aa5	-0.19578035
125	0xbd142256	-0.036165558
126	0xbe92588c	-0.2858318
127	0xbd901e72	-0.07037057
128	0xbea371d8	-0.31922793
129	0xbdbd7439	-0.09250683
130	0xbe184b2a	-0.14872423
131	0xbe866c7d	-0.26254645
132	0xbe576a14	-0.2103656
133	0x3b932562	0.0044905404
134	0x3ce23752	0.02761427
135	0xbd7e5b7b	-0.06209896
136	0xbd92d78f	-0.07170021
137	0xbdf1c0a4	-0.118043214
138	0xbddf3be2	-0.109000936
139	0x3cc7b905	0.024380216
140	0xbe310654	-0.1728757
141	0xbd3a20d2	-0.045441456
142	0xbd9f958a	-0.07792194
143	0x3baaaa73	0.0052083074
144	0xbeb22c2a	-0.3479932
145	0xbe0c04fe	-0.1367378
146	0xbcae2fd6	-0.021263044
147	0x3d5a27e0	0.053260684
148	0x3cc749ee	0.024327245
149	0xbcf8b19c	-0.030358128
150	0xbd9b4cd9	-0.07583017
151	0x3d9814a0	0.07425809
152	0x3d8923b8	0.06696266
153	0xbe07556d	-0.13216181
154	0xbda8c149	-0.08239991
155	0xbe3f75d0	-0.18697286
156	0x3d139849	0.036033902
157	0xbe4fc442	-0.2028971
158	0xbe5667a9	-0.2093798
159	0xbd2e321f	-0.042528268
160	0x3d5f7312	0.0545531
161	0xbd964c85	-0.07338814
162	0xbd3d95cf	-0.046285447
163	0xbe351ae4	-0.17686039
164	0x3c630e88	0.013858445
165	0xbe490f18	-0.19634664
166	0xbe24d7bc	-0.16097921
167	0x3e5710c7	0.21002494
168	0xbcd22aa6	-0.025655102
169	0xbe0da7e2	-0.13833573
170	0x3d86842c	0.065681785
171	0x3d8be31d	0.06830428
172	0xbeb9fb64	-0.36324608
173	0xbe2767a0	-0.16348124
174	0xbd76362f	-0.060110267
175	0xbe50180d	-0.20321675
176	0xbcb69e99	-0.022292422
177	0x3d13b49e	0.03606092
178	0x3d2d675e	0.042334907
179	0x3cc3b525	0.023890087
180	0xbdf43177	-0.11923497
181	0x3bf83ea4	0.0075758267
182	0xbd368d8c	-0.044568583
183	0xbd8c7ed5	-0.06860129
184	0xbe8a54d0	-0.27017832
185	0xbdd77469	-0.1052025
186	0xbca43a22	-0.020047251
187	0xbd76c48d	-0.06024604
188	0xbd8e6be8	-0.06954175
189	0x3d0accde	0.033886783
190	0xbdda7e06	-0.10668568
191	0xbc42d620	-0.011891872
192	0xbdd82d45	-0.105555095
193	0xbe0e3c85	-0.13890274
194	0xbe950d00	-0.2911148
195	0xbd559a11	-0.052148882
196	0xbdf13db4	-0.11779347
197	0xbda9f32b	-0.08298334
198	0x3ac35b01	0.0014904441
199	0x3cd6009d	0.02612334
200	0xbd9052be	-0.07047032
201	0xbdfedcf6	-0.12444489
202	0xbd8a5ce5	-0.067559995
203	0xbcd6f001	-0.02623749
204	0xbe9fd26a	-0.3121522
205	0xbccecc93	-0.025244033
206	0xbcae9361	-0.02131051
207	0x3d42c337	0.047549453
208	0xbc6e39a6	-0.014540112
209	0xbe16cb71	-0.14726044
210	0xbe2a82b5	-0.16651423
211	0x3dae1096	0.08499257
212	0xbd0a4f24	-0.03376688
213	0x3d9568aa	0.07295354
214	0x3d71a57d	0.058995713
215	0xbc70659f	-0.014672666
216	0xbdb5c033	-0.0887455
217	0x3c27a3dc	0.010231938
218	0xbcb02ee9	-0.021506744
219	0x3d26a166	0.040681265
220	0xbe3fa283	-0.18714337
221	0x3cc1abbe	0.023641463
222	0xbe1e43a2	-0.15455487
223	0xbdf0ee0b	-0.11764153
224	0x3c238a97	0.009981773
225	0xbdee71a9	-0.11642773
226	0xbce8bc6a	-0.028410155
227	0xbb4e9636	-0.0031522638
228	0x3d032316	0.032015882
229	0xbd8ff9f0	-0.07030094
230	0x3d316a53	0.04331429
231	0xbdc8b640	-0.098003864
232	0xbd664151	-0.056214634
233	0xbc0db81b	-0.008649851
234	0x3d8a5d73	0.06756105
235	0xbdaa6b6f	-0.083212726
236	0x3abcc408	0.0014401684
237	0xbcf9dda9	-0.030501204
238	0xbd8dd1b8	-0.06924766
239	0xbdb2d585	-0.08732132
240	0x3d0ab39c	0.033862695
241	0xbe050e8a	-0.12993827
242	0xbe3befb4	-0.18353158
243	0x3d5cb0d6	0.05387958
244	0x3ce1fbc3	0.02758587
245	0xbddce7b8	-0.10786384
246	0xbd829315	-0.0637571
247	0xbd675860	-0.056480765
248	0xbe4025ab	-0.18764369
249	0xbc8fd07a	-0.017555464
250	0xbce418e6	-0.027843904
251	0xbd30567d	-0.04305123
252	0x3a42ff9e	0.00074386026
253	0xbe75ef4f	-0.2401707
254	0x3baad88f	0.005213804
255	0xbe812b16	-0.25228184

bias f4 [256]
0	0xbe9282ae	-0.28615326
1	0xbe8afa05	-0.27143875
2	0xbe4133b3	-0.18867378
3	0xbe3d109e	-0.1846337
4	0xbebb26bd	-0.36552992
5	0xbcf18a2c	-0.02948483
6	0xbef7569d	-0.48308268
7	0xbdbdc055	-0.092652
8	0x3e6b457e	0.22975728
9	0xbe7b1bf0	-0.24522376
10	0xbf0c2623	-0.5474569
11	0xbe2c7aaf	-0.16843675
12	0xbe9f4a8f	-0.3111157
13	0x3ea4bddd	0.32176104
14	0xbe80a4d2	-0.25125748
15	0xbe665c48	-0.2249614
16	0xbd93e31b	-0.07221051
17	0xbf13efff	-0.5778808
18	0x3e071887	0.1319295
19	0xbd93dc35	-0.072197355
20	0xbedb5d8a	-0.42844802
21	0xbf065052	-0.5246631
22	0xbf3e274c	-0.7427871
23	0xbe56fcaa	-0.20994821
24	0xbf6f401d	-0.93457204
25	0xbe351256	-0.17682776
26	0xbd9c78f5	-0.07640258
27	0xbe1309a2	-0.14359143
28	0xbd859d02	-0.065240875
29	0xbe766dab	-0.24065273
30	0xbe034883	-0.1282063
31	0xbea4cb81	-0.3218651
32	0xbef3efe5	-0.47643963
33	0x3d81cb32	0.063375846
34	0xbde6dc4a	-0.112724856
35	0xbd3b6ac7	-0.045756128
36	0xbdc778a2	-0.09739806
37	0xbe9eed54	-0.31040442
38	0xbe119a67	-0.14219056
39	0xbcf64c7f	-0.030065773
40	0xbeeb98b4	-0.4601494
41	0xbf19d18e	-0.6008538
42	0xbeb49b6e	-0.35274833
43	0xbe1d5b7e	-0.15366933
44	0xbe8100a7	-0.2519581
45	0xbeecd4ed	-0.462562
46	0xbed349c3	-0.41267213
47	0xbe286926	-0.16446361
48	0xbd9b25b5	-0.075755514
49	0xbeb52974	-0.3538319
50	0xbedefd2b	-0.43552527
51	0xbdf77a95	-0.120839275
52	0xbe9e5922	-0.30927378
53	0xbe22f51e	-0.15913817
54	0xbea3147c	-0.31851566
55	0xbe238d63	-0.15971904
56	0xbf131a7c	-0.57462287
57	0x3d84e7a8	0.064894974
58	0xbe2a00c1	-0.1660185
59	0xbecd1061	-0.4005156
60	0xbaac7acf	-0.0013159158
61	0x3efc4e5a	0.49278527
62	0xbd4d415f	-0.05011117
63	0xbe6e33d9	-0.23261966
64	0x3d11cc5d	0.035595287
65	0x3fc508b0	1.5393276
66	0xbcb8142a	-0.022470552
67	0xbea61ed7	-0.32445404
68	0xbde9d66f	-0.11417853
69	0xbd59c51c	-0.053166494
70	0xbf110bbe	-0.5665854
71	0xbeb65ca5	-0.35617557
72	0xbe0673bf	-0.13130091
73	0xbda1770d	-0.07884035
74	0xbccf5f14	-0.025313891
75	0xbdea2dcd	-0.11434517
76	0xbdafe25c	-0.085880965
77	0xbdc102ea	-0.09424384
78	0xbdd38ff7	-0.103301935
79	0xbf0d79a0	-0.5526371
80	0xbe288b64	-0.16459423
81	0xbd91be76	-0.07116406
82	0xbe5483ff	-0.20753478
83	0xbe63348e	-0.22188017
84	0xbe8188a2	-0.25299555
85	0xbe033e4a	-0.1281673
86	0xbe140940	-0.14456654
87	0x3e6c2771	0.2306192
88	0xbe368076	-0.17822441
89	0xbe8ec4d2	-0.27884537
90	0xbf017dcf	-0.50582594
91	0x3ecff820	0.40618992
92	0xbe01793b	-0.12643902
93	0xbdbb1fec	-0.09136948
94	0x3c9bd382	0.019021753
95	0xbe412174	-0.18860418
96	0xbe187519	-0.14888419
97	0xbd7ab758	-0.061210006
98	0xbe83c537	-0.257364
99	0x3cae382e	0.021267023
100	0x3f20ae09	0.62765557
101	0xbe1fbafb	-0.15598671
102	0xbedf15c7	-0.43571302
103	0xbd304a1a	-0.04303942
104	0xbe19016a	-0.14941946
105	0xbe936850	-0.28790522
106	0xbdb3c0fb	-0.087770425
107	0xbe9a3bf5	-0.3012387
108	0xbe8f3535	-0.2797028
109	0xbededbd7	-0.435271
110	0xbe1fe77e	-0.15615651
111	0xbd7eb46d	-0.062183786
112	0xbf6bc889	-0.9210287
113	0xbd9939db	-0.07481738
114	0xbe378b81	-0.1792431
115	0x3ef17dd3	0.4716631
116	0x3f15723c	0.5837743
117	0xbecad663	-0.3961669
118	0xbe474207	-0.19458781
119	0xbe863d22	-0.26218516
120	0xbec1492f	-0.37751147
121	0xbd963480	-0.07334232
122	0xbd5b44ce	-0.053532414
123	0xbe86ff5a	-0.26366693
124	0x3db05207	0.086093955
125	0xbe2facd1	-0.17155768
126	0xbeb22115	-0.34790865
127	0xbd1d1e4e	-0.03835898
128	0xbcd6ef19	-0.026237058
129	0xbeb3a9ae	-0.35090393
130	0xbd7efd9e	-0.062253587
131	0xbdf05a47	-0.11735969
132	0x4068bbb8	3.6364574
133	0xbe5423ee	-0.20716831
134	0xbde78a97	-0.11305731
135	0xbd34614b	-0.0440381
136	0x3e8e6675	0.27812544
137	0xbdff6c78	-0.12471861
138	0x3ea618a8	0.32440686
139	0xbe8e0fc3	-0.277464
140	0xbdaa14dc	-0.0830476
141	0xbe4d20f7	-0.20032106
142	0xbd51cf74	-0.051223233
143	0xbe8ffe06	-0.28123492
144	0x3cbc626a	0.022996146
145	0xbdda1a43	-0.1064954
146	0xbe91385c	-0.2836331
147	0xbe891259	-0.2677181
148	0xbed6d7a5	-0.419614
149	0xbef0756a	-0.4696458
150	0xbdc09d42	-0.094049945
151	0xbda696e3	-0.08134248
152	0xbd941bbb	-0.07231852
153	0xbd774d15	-0.060376246
154	0xbf03169e	-0.51206386
155	0xbec92d3f	-0.39292333
156	0x3e83e3d9	0.2575977
157	0x3ed31697	0.41228172
158	0x3c8fc4a9	0.01754983
159	0xbd5b3ea1	-0.053526524
160	0xbebe018f	-0.37110564
161	0xbdfdbd38	-0.12389606
162	0xbf0c3217	-0.5476393
163	0xbed96b95	-0.4246489
164	0xbdc8f43e	-0.098122105
165	0xbe670cab	-0.22563426
166	0xbdc7627c	-0.09735581
167	0xbe354621	-0.17702533
168	0xbd840322	-0.0644591
169	0xbe8bcb4c	-0.2730354
170	0xbf03f9db	-0.51553124
171	0xbe4059ec	-0.18784302
172	0xbe267bf0	-0.16258216
173	0xbf73d510	-0.9524698
174	0xbeacd888	-0.3375895
175	0xbda69c74	-0.0813531
176	0xbdee5aac	-0.11638388
177	0xbe446776	-0.19180092
178	0xbe2073ba	-0.15669146
179	0xbe66e5f5	-0.22548659
180	0x3efdb69d	0.49553385
181	0xbecc0bf4	-0.3985287
182	0xbe48fc42	-0.19627479
183	0xbecfec59	-0.40610006
184	0x3de1a4d7	0.11017769
185	0xbeb294ac	-0.34879053
186	0xbe11b8bb	-0.14230625
187	0xbdd7f035	-0.10543863
188	0xbe6efd6a	-0.23338857
189	0xbe33d200	-0.17560577
190	0xbe213dd5	-0.15746243
191	0xbf06747e	-0.525215
192	0xbe8bf1c6	-0.27332896
193	0xbf3ce98e	-0.73793876
194	0xbf4f445e	-0.80963695
195	0xbe2706a2	-0.16311124
196	0xbec11708	-0.37712884
197	0xbef2ece1	-0.4744635
198	0xbe821981	-0.25410083
199	0xbe29bc86	-0.16575822
200	0xbdb69148	-0.08914429
201	0xbdb3e5fc	-0.087841004
202	0x40381633	2.876355
203	0xbe3c5a56	-0.18393835
204	0xbe65db88	-0.22447026
205	0xbd9fdfe4	-0.078063756
206	0xbe7459a5	-0.23862322
207	0xbe4b0f39	-0.19830026
208	0x3ef2aad6	0.47395962
209	0xbd84f963	-0.06492879
210	0xbf438684	-0.7637713
211	0xbe126e46	-0.14299878
212	0xbf171a81	-0.59024817
213	0xbe6ff8ca	-0.23434749
214	0xbd9bf6b9	-0.07615418
215	0xbe8656c3	-0.2623807
216	0xbe122372	-0.14271334
217	0x3fb7938d	1.4341904
218	0xbefb3102	-0.49060827
219	0x3f116b31	0.56804186
220	0xbe48ed27	-0.19621716
221	0x3ebe2534	0.3713776
222	0xbe83f849	-0.25775364
223	0xbf509f06	-0.8149265
224	0xbea5b01e	-0.3236093
225	0xbe94e2e3	-0.2907935
226	0xbe12a101	-0.1431923
227	0xbe8d2bd5	-0.27572504
228	0xbd31706a	-0.043320097
229	0xbd92cff6	-0.07168572
230	0x3f0b3416	0.5437635
231	0xbe4a6c97	-0.19767986
232	0x40507ae1	3.2575
233	0xbdaadef4	-0.08343306
234	0xbe9b100a	-0.30285674
235	0xbe57a8ac	-0.21060437
236	0xbef442e7	-0.47707292
237	0x3e542c3f	0.20720004
238	0xbd85250e	-0.06501208
239	0xbe843847	-0.25824186
240	0xbdb675e2	-0.08909203
241	0xbe1a5119	-0.15069999
242	0xbe0db9c7	-0.138404
243	0xbe9269e3	-0.2859641
244	0xbf058008	-0.52148485
245	0xbe47f37b	-0.19526474
246	0xbddc454b	-0.10755404
247	0xbed5f952	-0.4179178
248	0xbdadb15e	-0.08481096
249	0xbe8f81da	-0.28028756
250	0x3ec9048d	0.39261284
251	0xbe93dbd9	-0.28878668
252	0xbe83518e	-0.2564816
253	0xbe8495b5	-0.25895467
254	0x3f1aef5e	0.60521495
255	0x3f199b81	0.60002905

weight f4 [128, 256]
0	0xbd7ecb4f	-0.06220561
1	0xba3cb2ac	-0.0007198255
2	0x3dbd2c0c	0.09236917
3	0xbdded2a3	-0.108800195
4	0x3df7e7ab	0.12104734
5	0x3e347669	0.17623295
6	0xbe98dfdb	-0.29858288
7	0x3dfa6164	0.12225607
8	0xbeb1c395	-0.3471953
9	0x3e31c8ab	0.17361705
10	0x3d7356ee	0.059409074
11	0xbd4b89ff	-0.04969215
12	0xbe0e2965	-0.13882978
13	0xba48e147	-0.00076629635
14	0x3e395b5e	0.1810126
15	0xbe1dd19c	-0.15411991
16	0x3c44996e	0.011999471
17	0xbe759467	-0.23982392
18	0xbd8a6cf5	-0.06759063
19	0x3da314b1	0.07962931
20	0x3d6f86fb	0.058478337
21	0xbd494443	-0.049137365
22	0xbca1d7bc	-0.01975619
23	0xbd648820	-0.05579388
24	0xbd87cf42	-0.06631328
25	0xbc7984a7	-0.015229381
26	0xbd11123a	-0.035417773
27	0xbe124bd9	-0.14286746
28	0xbcc7ad04	-0.024374492
29	0x3dc2695c	0.09492752
30	0x3e1cb901	0.15304948
31	0x3d301015	0.042984087
32	0xbdd40fee	-0.10354601
33	0xbe4afbdb	-0.19822638
34	0x3d88f1fc	0.0668678
35	0xbd635c25	-0.055507798
36	0xbd8738f1	-0.066026576
37	0xbdc12564	-0.0943096
38	0x3e2d43d3	0.16920404
39	0xbd770c7d	-0.060314644
40	0xbcfecdc0	-0.031103969
41	0xbe1ca0b7	-0.15295683
42	0x3e1cbe87	0.15307055
43	0xbcaf9ac1	-0.021436097
44	0xbc6d9b2b	-0.014502327
45	0x3bbc75c8	0.0057513453
46	0x3dd3d7d7	0.103439026
47	0x3dd9b1c7	0.106296115
48	0x3d37fd84	0.044919506
49	0xbd36c0d4	-0.04461749
50	0xbeba5f54	-0.36400855
51	0xbdcb829c	-0.09937021
52	0xbbefa20b	-0.007313018
53	0x3dbc113a	0.09182973
54	0xbdda704f	-0.106659524
55	0xbb4affef	-0.0030975302
56	0x3c3701e1	0.011169882
57	0xbd7bcdb8	-0.061475486
58	0x3c9a7ddb	0.01885884
59	0xbe083fa2	-0.13305524
60	0xbe99adc3	-0.30015382
61	0xbe22e053	-0.15905885
62	0x3d1de3c3	0.03854729
63	0x3d10e2d4	0.03537257
64	0x3da4db0b	0.08049592
65	0x3d63af2f	0.05558699
66	0x3e214e62	0.15752557
67	0x3e0f33df	0.13984631
68	0xbe1db3ea	-0.15400663
69	0xbdda4fd4	-0.10659757
70	0x3c803c0c	0.015653633
71	0x3ceb6134	0.028732873
72	0x3e1dc492	0.15407017
73	0x3d3bd557	0.045857754
74	0x3d8a9226	0.06766157
75	0xbe20ee75	-0.15715964
76	0x3c55b955	0.013044675
77	0x3d51f0d4	0.051255062
78	0xbd1ac1d4	-0.037782505
79	0xbe3e8725	-0.18606241
80	0xbd87f4d3	-0.066384934
81	0xbd2452fd	-0.040118206
82	0x3de03544	0.109476596
83	0x3d8880f2	0.06665219
84	0xbcb7bb9f	-0.022428332
85	0x3d8bdb60	0.06828952
86	0x3e3b5232	0.18293074
87	0xbe9b0903	-0.30280313
88	0xbe251b61	-0.16123725
89	0xbc26c070	-0.010177717
90	0xbdc11879	-0.09428496
91	0xbef8e5d3	-0.48612842
92	0xbcb1766b	-0.021662911
93	0xbdd7fa41	-0.10545779
94	0xbdddf409	-0.10837562
95	0x3d3fcdd2	0.046827145
96	0xbbae7748	-0.005324278
97	0x3dda8d31	0.106714614
98	0xbe234f63	-0.15948252
99	0xbecb9dec	-0.39768922
100	0x3d0eb0ed	0.0348367
101	0xbd7a1ac8	-0.061060697
102	0xbd9cfd70	-0.07665527
103	0xbd33bffc	-0.043884262
104	0x3d09afff	0.03361511
105	0x3e21a00e	0.15783712
106	0x3d848d4b	0.06472262
107	0xbe4444e8	-0.1916691
108	0x3c9dec32	0.019277666
109	0xbd8b48e8	-0.06801015
110	0xbd22567b	-0.039633255
111	0x3c3bfb9c	0.011473563
112	0xbedd5b8c	-0.43233907
113	0xbd1c37c1	-0.03813911
114	0x3ddd9d90	0.10821068
115	0x3e1f348e	0.15547392
116	0xbe86b329	-0.26308563
117	0x3e5b5c4a	0.21421924
118	0xbb27e3a2	-0.0025617857
119	0xbd0dc9f8	-0.03461644
120	0xbdffbd48	-0.124872744
121	0x3e1db54e	0.15401193
122	0xbec0b0d1	-0.376349
123	0xbe8ab594	-0.27091658
124	0xbf096c94	-0.536813
125	0xbe20a55d	-0.15688081
126	0xbd076b57	-0.03306135
127	0x3dea5ac1	0.11443091
128	0x3d87c56c	0.06629452
129	0xbeae99a3	-0.3410159
130	0x3e064c44	0.1311503
131	0xbd7717ea	-0.06032554
132	0xbe632044	-0.22180277
133	0xbe165ac0	-0.14683056
134	0x3c1a0aae	0.00940196
135	0xbe8d7518	-0.27628398
136	0xbd7f87c4	-0.062385336
137	0x3c89e56e	0.016833033
138	0x3cf40f74	0.029792525
139	0xbddacac2	-0.10683204
140	0xbd53f92c	-0.0517513
141	0xbe9b9bfb	-0.3039244
142	0x3de1762a	0.11008866
143	0xbb8a46b4	-0.0042198543
144	0xbda4918c	-0.08035573
145	0x3e2c89d7	0.16849457
146	0xbdbc328d	-0.09189329
147	0x3da7de9a	0.08196755
148	0x3d944f05	0.07241634
149	0xbd5fa633	-0.05460186
150	0x3e29ebb6	0.16593823
151	0x3d41d479	0.04732177
152	0x3c994037	0.018707378
153	0x3db67bc1	0.08910323
154	0x3d8e3c09	0.069450445
155	0x3c77211e	0.015083579
156	0x3d8c1cde	0.068414435
157	0xbdc35c2a	-0.09539063
158	0x3d8ea560	0.069651365
159	0x3ce21952	0.027599964
160	0x3de276bf	0.11057805
161	0xbd9870b0	-0.074433684
162	0xbe4f2f9b	-0.20233004
163	0x3e1a8369	0.15089191
164	0x3db4c434	0.08826485
165	0x3d813c55	0.063103355
166	0x3e0ed513	0.13948469
167	0x3caaa45c	0.020830326
168	0x3dc4c00a	0.09606941
169	0xbdd34a9f	-0.10316967
170	0xbe2352ea	-0.15949598
171	0x3e076d8e	0.13225386
172	0x3e130466	0.14357147
173	0xbc19fcce	-0.009398652
174	0xbd133ecf	-0.03594857
175	0xbd81cc6a	-0.06337817
176	0x3c7b5ee2	0.015342446
177	0xbdeffd71	-0.11718262
178	0xbe30afc9	-0.17254557
179	0x3db98912	0.09059347
180	0x3d1feeae	0.039045982
181	0x3dd2029c	0.10254404
182	0xbda1e1db	-0.07904407
183	0x3cc9246d	0.024553502
184	0x3d357815	0.044303972
185	0xbddce215	-0.10785309
186	0x3dfd7830	0.123764396
187	0x3e1569b9	0.14591111
188	0xbd797b98	-0.060908884
189	0xbe0a359a	-0.1349701
190	0xbbe278bf	-0.0069113667
191	0xbde59453	-0.11209931
192	0x3d3cbb75	0.04607721
193	0xbe66c662	-0.22536615
194	0xbe9062c0	-0.2820034
195	0xbe7b89ba	-0.24564257
196	0xbe145162	-0.1448417
197	0xbc73d2bc	-0.014881786
198	0xba41e784	-0.0007396864
199	0xbe008605	-0.12551124
200	0x3d3e0f6a	0.04640142
201	0xbded43ac	-0.11585173
202	0xbedb91ce	-0.42884678
203	0x3d8daf20	0.06918168
204	0x3e2103bd	0.15724082
205	0xbde83d94	-0.1133987
206	0xbe102f3f	-0.14080523
207	0x3da9a672	0.082837
208	0xbc4e3c71	-0.012587653
209	0xbd374182	-0.044740207
210	0xbe11ce0e	-0.1423876
211	0x3e14db00	0.14536667
212	0x3ddea2db	0.10870906
213	0xbdffc659	-0.12489004
214	0xbd2279a8	-0.0396668
215	0xbd55ceff	-0.05219936
216	0x3cf8b982	0.030361895
217	0x3c4906a5	0.012269651
218	0x3e0f8df7	0.14018999
219	0xbef0a11a	-0.4699791
220	0xbd668a79	-0.0562844
221	0xbe59dbba	-0.21275225
222	0xbd20aff8	-0.039230317
223	0x3e655cc7	0.22398673
224	0xbd2d07e6	-0.04224386
225	0xbe0d3d5a	-0.13792935
226	0x3d51731e	0.051135175
227	0xbdca6e5e	-0.09884332
228	0x3d885de3	0.066585325
229	0xbd901d23	-0.070368074
230	0xbd6ba26d	-0.05752795
231	0x3d3de027	0.046356346
232	0xbe625622	-0.2210317
233	0x3df4bfac	0.11950621
234	0x3e0301c6	0.12793645
235	0x3cf41b90	0.0297983
236	0xbd3b4d87	-0.045728233
237	0x3e3d5d81	0.184927
238	0x3de2c387	0.1107245
239	0xbcad40af	-0.021149008
240	0x3bf4985d	0.007464452
241	0xbc8341d8	-0.016022608
242	0x3d075ca6	0.03304734
243	0x3d99885a	0.0749671
244	0x3d21f8a6	0.03954377
245	0x3dd7a5be	0.1052966
246	0xbc631f40	-0.013862431
247	0x3d9551bf	0.072909825
248	0xbe0a0ac1	-0.13480665
249	0x3ec8d8d1	0.39227918
250	0x3d898f12	0.067167416
251	0x3dc3e7d2	0.095657006
252	0x3c178efe	0.009250401
253	0x3de9933e	0.11405037
254	0xbca0fab4	-0.019650795
255	0xbea23da0	-0.3168764

bias f4 [128]
0	0xbfc40a57	-1.5315655
1	0xbf9bd945	-1.217568
2	0xbf7a7056	-0.9782766
3	0xbea777c5	-0.32708564
4	0xbec8958c	-0.39176595
5	0xc0147de9	-2.320185
6	0xbe908179	-0.2822378
7	0xbf31d312	-0.6946269
8	0x3f1b6277	0.6069712
9	0xbecef0c4	-0.40418065
10	0xbfc2a5a8	-1.5206804
11	0x3f6a1ae8	0.91447306
12	0xbf840d3f	-1.0316542
13	0x406709db	3.6099765
14	0xbee0031e	-0.43752378
15	0xbf48d004	-0.78442407
16	0xbe91ae96	-0.2845351
17	0xbfa10f86	-1.2582862
18	0xbf6be96f	-0.92153066
19	0x3f0809ea	0.5314013
20	0xbdb08fe5	-0.08621196
21	0xbf8d3039	-1.1030341
22	0xbf8a96f8	-1.0827322
23	0xbf06e2ec	-0.52690005
24	0xc0073b06	-2.1129775
25	0xbef23aba	-0.4731043
26	0xbf425fc6	-0.7592739
27	0xbf81092c	-1.0080924
28	0xbf0d1cd2	-0.551221
29	0xbf402cbf	-0.7506828
30	0xbf4462bd	-0.7671316
31	0xbf1f0db4	-0.62130284
32	0xbf73ee27	-0.95285267
33	0xbec9d77b	-0.3942221
34	0xbf7f778c	-0.9979179
35	0xbd501e38	-0.05081007
36	0xbf4261de	-0.75930583
37	0xbf78b1e0	-0.97146416
38	0x3efa7608	0.48918176
39	0xbeaac09a	-0.33350068
40	0xbf573af5	-0.84074336
41	0xbf683f5a	-0.90721667
42	0xbeda48a0	-0.42633533
43	0xbfb9660b	-1.4484266
44	0xbfe6d4c0	-1.8033676
45	0xc001ddb6	-2.0291572
46	0xbf4d8e7f	-0.80295557
47	0xbfa2d953	-1.2722572
48	0xbf2a1971	-0.6644507
49	0xbf0e4ee8	-0.5558915
50	0xbf3b4fe0	-0.73168755
51	0xbf48c63b	-0.78427476
52	0xbfa264ca	-1.2687008
53	0xbf3af90e	-0.7303628
54	0xbf5bf4b0	-0.8592024
55	0xbfa71839	-1.3054267
56	0xbf8ccbc3	-1.0999683
57	0xbf37a32a	-0.71733344
58	0xbf2c345d	-0.672674
59	0xbf7ea077	-0.994636
60	0xbf4cbdde	-0.79977214
61	0xbf568c94	-0.83808255
62	0xbf39ffb7	-0.72655815
63	0xbf5e1968	-0.86757517
64	0xbfd60edc	-1.6723285
65	0xbf60377e	-0.87584674
66	0xbf2c1ad4	-0.67228436
67	0xbf823371	-1.0171949
68	0xbf7ea95c	-0.9947717
69	0xbff9f993	-1.9529289
70	0xc000df55	-2.013631
71	0xbee91196	-0.4552123
72	0xbf93b43c	-1.1539378
73	0x4022274b	2.5336483
74	0x3ec5208a	0.38501388
75	0xbf7d31e5	-0.9890426
76	0xbedbc458	-0.42923236
77	0xbef6f367	-0.48232576
78	0xbf99e3f8	-1.2022696
79	0x3d76f668	0.060293585
80	0xbf9f23fd	-1.2432858
81	0x4101d71c	8.115017
82	0x4091ea53	4.559854
83	0xbecd6368	-0.40114903
84	0xbf5ce018	-0.8627944
85	0xbf90b15f	-1.1304129
86	0xbf308577	-0.6895365
87	0xbf6a1460	-0.9143734
88	0xbfb47c3e	-1.4100416
89	0xbf1d40ec	-0.6142719
90	0x3ec6f81e	0.38861173
91	0x3da988d1	0.08278049
92	0xbf942d1d	-1.1576267
93	0xbf691245	-0.910435
94	0xbebf8eb4	-0.3741356
95	0xbe7059aa	-0.23471704
96	0xbf732868	-0.9498353
97	0xbfed6c3b	-1.8548654
98	0xbfaeac30	-1.3646297
99	0xbf4a32a4	-0.7898352
100	0xbf43212f	-0.7622251
101	0xbf3466e5	-0.70469505
102	0xbf2d166f	-0.67612356
103	0xbfcf7382	-1.6207125
104	0xbf88e0a1	-1.0693551
105	0xbfcea604	-1.6144414
106	0xc00d18d1	-2.2046397
107	0xc00c7069	-2.194361
108	0xbf879fa0	-1.0595589
109	0xbf76b93e	-0.9637641
110	0xbf2101ad	-0.6289318
111	0xbf898630	-1.0744076
112	0xbefac4a3	-0.48978147
113	0xc00f1f6a	-2.2362924
114	0xbf74ddcf	-0.95650953
115	0xbe986564	-0.29764855
116	0xbfaeb6a9	-1.3649493
117	0xbfbc6ece	-1.4721315
118	0xbfa62aa1	-1.2981759
119	0xbf269ba3	-0.6508123
120	0xbf631b9a	-0.8871399
121	0xbfbd94dc	-1.4811053
122	0xbf9b9ef3	-1.2157882
123	0xbf542090	-0.82862186
124	0xbf08a598	-0.53377676
125	0x3fa84185	1.3144995
126	0xbf9b3ff4	-1.2128892
127	0xbecf16d0	-0.40447092

weight f4 [1, 128]
0	0x3cad25f7	0.021136267
1	0xbe19fdb8	-0.15038192
2	0xbdbee4b7	-0.09320968
3	0x3e125264	0.14289242
4	0xbc56d52f	-0.01311235
5	0xbe80fcdd	-0.2519292
6	0xbd560d83	-0.05225898
7	0x3e1677db	0.14694159
8	0xbdd920f0	-0.106019855
9	0xbd50b1eb	-0.050950926
10	0x3b79db3d	0.003812506
11	0xbe2dad20	-0.16960573
12	0x3c92c368	0.017915443
13	0xbe027e70	-0.12743545
14	0xbcb3b3bb	-0.021936288
15	0x3b99e471	0.004696422
16	0x3dd06f6a	0.101775005
17	0x3dfe51de	0.12417959
18	0x3dab1b36	0.083547994
19	0xbeb0ffc9	-0.3457015
20	0x3d3695cb	0.044576447
21	0x3d27cad7	0.040964928
22	0xbcc59621	-0.024119439
23	0x3d3de00b	0.046356242
24	0x3d89a231	0.06720389
25	0xbd04a440	-0.032383204
26	0xbe93954f	-0.2882485
27	0xbd8dfd62	-0.069330946
28	0xbe2edd5e	-0.17076632
29	0x3dde056a	0.108408764
30	0xbe0a2111	-0.13489176
31	0xbc15b21b	-0.009136702
32	0xbd82c3d3	-0.06385007
33	0xbd570d6e	-0.052503042
34	0x3eb02a53	0.3440729
35	0xbe8aeebb	-0.27135262
36	0x3d42a77a	0.047523
37	0xbda44df5	-0.080226816
38	0x3ed3bfe0	0.41357327
39	0xbdfb60fc	-0.12274358
40	0xbd18669b	-0.037207227
41	0x3db94c91	0.09047807
42	0xbd5a1d5b	-0.05325065
43	0x3c449d0e	0.012000335
44	0x3c1f2032	0.009712266
45	0x3c8bc432	0.017061327
46	0xbd6caf43	-0.05778433
47	0x3ee3517d	0.44398108
48	0xb91e8119	-0.00015116147
49	0xbe517524	-0.20454842
50	0x3e078dbf	0.13237666
51	0xbe0ed604	-0.13948828
52	0x3bbfe8de	0.0058566174
53	0xbdb3e4ef	-0.087839
54	0xbd1d723f	-0.03843903
55	0xbe2cd762	-0.16879037
56	0xbc8d3d92	-0.017241273
57	0x3c744d85	0.01491106
58	0xbcc62747	-0.02418865
59	0xbd8d0a04	-0.06886676
60	0xbe3bb4d5	-0.183307
61	0x3c6f52eb	0.0146071715
62	0xbd3911e6	-0.045183085
63	0xbd997871	-0.074936755
64	0x3e85cce9	0.26132897
65	0xbbaf7e4e	-0.005355633
66	0x3c1ce7ad	0.00957672
67	0xbd4a4d6f	-0.049390253
68	0x3e1cc8fc	0.15311044
69	0xbdb2f338	-0.087377965
70	0xbe1b1a54	-0.15146762
71	0x3c86b3ea	0.016443212
72	0xbda87a5a	-0.08226462
73	0xbea2e3f4	-0.3181454
74	0xbd5adc83	-0.053432953
75	0x3d0db141	0.03459287
76	0xbd9a9b0c	-0.07549104
77	0x3e6caef2	0.23113611
78	0xbc1110ad	-0.0088540735
79	0xbea47b8c	-0.3212551
80	0xbe844e3b	-0.25840935
81	0xbeac1965	-0.33613124
82	0xbec71256	-0.38881177
83	0x3bc04ceb	0.0058685443
84	0xbe5234a1	-0.20527889
85	0x3db277e2	0.08714272
86	0x3d231a35	0.039819915
87	0xbe339233	-0.1753624
88	0x3bcc46f0	0.0062340423
89	0xbd0fb2b0	-0.03508252
90	0xbf436d6e	-0.7633885
91	0x3e448461	0.19191124
92	0xbe561cc6	-0.20909414
93	0x3d3203e0	0.043460727
94	0x3d55ef0e	0.052229933
95	0xbc2ebb63	-0.010664794
96	0xbc9a05de	-0.018801626
97	0xbe7a02a1	-0.24415065
98	0x3d2428dc	0.04007803
99	0x3e5bc9f0	0.21463752
100	0x3e0ca71b	0.1373562
101	0xbb3e868d	-0.0029071898
102	0xbdbdc1fd	-0.09265516
103	0x3da02bc0	0.07820845
104	0xbe57efbc	-0.21087545
105	0xbd656f72	-0.056014486
106	0x3c4dd9c6	0.012564128
107	0x3e197127	0.1498457
108	0x3ac6e5b9	0.0015174664
109	0xbd310052	-0.043213196
110	0x3c39c792	0.011339085
111	0x3b765cf4	0.0037592025
112	0xbda953c0	-0.08267927
113	0x3c902bd8	0.017599031
114	0xbc033377	-0.008007876
115	0x3e67e241	0.22644903
116	0xbde192cc	-0.110143274
117	0xbba27a36	-0.0049584163
118	0x3d518ec2	0.051161535
119	0x3dc0a8b6	0.09407179
120	0x3d4e43da	0.050357677
121	0x3c062bf3	0.008189189
122	0xbc821bfc	-0.015882485
123	0xbe2805ad	-0.16408415
124	0xbc7745f3	-0.015092361
125	0xbedc253f	-0.42997167
126	0x3cb282d9	0.021790909
127	0xbe023fb8	-0.1271962
